Models/CVD_Classification_Model.tflite (tflite, 5752 bytes, 5 tensors)

sequential/dense_2/MatMul f4 [1, 32]
000000 1c b2 eb 3e 36 2a dc 3f 86 b4 ce 3c 10 72 3f 40
       0.46034324 1.7200382 0.025232565 2.9913368
000010 59 52 19 bf 8e 63 87 3f 14 20 57 be 73 d6 44 be
       -0.5989128 1.0577257 -0.2100833 -0.19222431
000020 11 72 0c 40 bb 97 ea be 75 8b 48 3f 3c d8 65 be
       2.194462 -0.45818886 0.78337795 -0.22445768
000030 00 13 56 3f 45 7e 63 be 96 32 38 40 4f 07 ce be
       0.8362274 -0.22216137 2.8780875 -0.4023995
000040 02 ca 3a 40 96 29 08 40 e2 65 0b bf b6 b3 18 40
       2.9185796 2.1275382 -0.54452336 2.3859687
000050 c8 a5 f9 3f 10 bf 84 be f2 53 41 40 98 eb 98 bd
       1.9503717 -0.2592702 3.0207486 -0.07466811
000060 aa af 42 3e 2f 90 fe 3e c9 15 b7 3f 8e 5a 10 bf
       0.19012323 0.49719378 1.4303523 -0.56388175
000070 f1 f8 3a 40 16 22 11 40 dc 96 0b 3f 22 0d 8c 3f
       2.9214442 2.2677054 0.5452707 1.0941508

sequential/dense_1/BiasAdd/ReadVariableOp f4 [32]
000000 fa e3 8d bd dc c1 d2 bd 83 8e 3b bd 7f 40 9b 3d
       -0.06928249 -0.10290882 -0.045790207 0.07580661
000010 32 64 8e 3e c9 df 0b 3e fd 0e 6e 3e e5 ba 64 bc
       0.27810818 0.13659586 0.23247905 -0.013960575
000020 4c 64 0a be d4 40 65 3e ed 56 ac 3c 07 ea 72 3e
       -0.13514823 0.22388011 0.021037543 0.23722087
000030 c9 2e 94 3d 81 6e 0f 3e b0 0f a3 3d 6c 62 47 3e
       0.07235486 0.14006998 0.079619765 0.19471139
000040 90 61 44 be 99 e0 61 bc ec 26 80 3e 96 5b 37 be
       -0.19177842 -0.013786458 0.25029695 -0.17906031
000050 fe 3d 7f bb e8 27 de bc a3 2c 42 3d 7b ad be bc
       -0.0038946862 -0.027118638 0.04740585 -0.023276081
000060 bb 0a cf bd cf 78 b6 bd 23 85 dc bd 09 62 b0 3d
       -0.101094685 -0.08909761 -0.10767581 0.08612449
000070 d0 6e f4 bd 19 fd 98 3c 90 bc b4 bc f9 e5 67 be
       -0.11935198 0.018675374 -0.02206257 -0.22646321

sequential/dense/BiasAdd/ReadVariableOp f4 [64]
000000 e4 d2 bb bd 07 37 83 be 8b a5 0a 3e 74 7b bf 3e
       -0.091710836 -0.2562792 0.13539712 0.37398875
000010 11 0e 62 3e 13 34 88 3e b8 be 8b 3d 7c ea 7f 3e
       0.22075678 0.2660223 0.06823486 0.24991792
000020 df b9 b5 3e 1d 23 d5 3e de 80 09 bf 4f 4f d6 3d
       0.3549337 0.41628352 -0.5371226 0.10464346
000030 6b 74 08 3e d1 6b 88 3e b8 09 90 be c9 87 49 be
       0.1332566 0.26644757 -0.28132415 -0.19680704
000040 63 29 b6 3e 25 0c cb 3e 21 0d 81 be ba ff 0d 3e
       0.3557845 0.39657703 -0.2520533 0.13867083
000050 4c e4 60 3e c2 91 9b 3d fb 05 34 3e 88 43 d4 bd
       0.21962088 0.075961605 0.17580406 -0.10364443
000060 c4 17 98 3d 75 01 8a 3e b1 b6 be bd e1 d9 b1 3e
       0.07426408 0.26954237 -0.09312189 0.3473654
000070 52 b1 bb 3d 4a ff 84 be d5 ae 60 be f5 fc 01 be
       0.091646805 -0.2597602 -0.21941693 -0.12694152
000080 d1 0a 39 be 7c 83 ef be 20 af 1f 3e fc 2d 1f be
       -0.18070532 -0.46780002 0.15594149 -0.15544885
000090 6a 7c 8f bd 1b db bd 3e 37 e4 96 3e a0 58 59 be
       -0.07006152 0.37081227 0.2947099 -0.21225214
0000a0 3a 3e 28 3e 3a b1 68 bc 81 b5 9b be a7 c5 a8 bc
       0.16429988 -0.01420241 -0.30411914 -0.02060206
0000b0 c2 2a 87 3d 0f c0 35 bd 16 9f 9c ba ca b0 58 3e
       0.06599952 -0.044372614 -0.0011949267 0.2116119
0000c0 ef f3 99 3d dd 7f b6 3e 24 33 00 3e 07 b7 ab 3d
       0.0751723 0.35644427 0.12519509 0.08384519
0000d0 3d 5c ae 3d 17 55 f0 3c 18 3b 39 3e f3 c5 9c 3d
       0.08513687 0.029337449 0.18088949 0.07654943
0000e0 44 d7 bc be a9 66 11 be 07 91 ed 3d d7 0a f0 be
       -0.36882985 -0.14199318 0.115999274 -0.4688327
0000f0 3f f2 4b 3d 82 49 a4 3e 50 34 ce 3d 4a 47 da be
       0.04979157 0.32087332 0.100685716 -0.42632514

sequential/dense/MatMul f4 [64, 4]
000000 c4 00 05 3d ce d5 ae 3c 3d 78 30 be 82 75 6d bf
       0.032471433 0.021342184 -0.17233367 -0.9275743
000010 50 9d 94 3b b9 f4 b6 3d 3b 29 51 be 37 24 0f 3e
       0.0045353547 0.08933396 -0.20425884 0.13978659
000020 b2 6a fe 3d d4 35 56 be 76 6b d4 3e b9 e1 a2 be
       0.12422694 -0.20918971 0.41488236 -0.31812838
000030 e4 08 ed ba 0f a9 19 3a 5c 46 21 3f 3c be 88 bc
       -0.0018084315 0.00058616785 0.62997985 -0.016692273
000040 7e 69 ed 3c 50 58 8f 3c 16 d6 19 3d 36 63 05 3f
       0.028980967 0.017498165 0.037557684 0.5210451
000050 c6 69 ba 3c 32 55 59 bd 96 97 82 3e 5a 49 18 bf
       0.022755515 -0.053059764 0.25506276 -0.59486926
000060 1a f7 02 3e da 28 77 be 8a ac b2 3e b9 de b6 3e
       0.12789574 -0.24136677 0.34897262 0.357168
000070 99 a6 88 bd 82 f3 da 3d a0 ee 3c 3d fa 9e cb 3e
       -0.06672401 0.10690977 0.046126008 0.39769727
000080 42 e2 f3 ba c0 85 5e ba 98 20 18 3f 27 f2 ff bb
       -0.0018606859 -0.0008488558 0.59424734 -0.007810849
000090 1a aa fc 3b 76 35 1d bc ea 88 a7 3e ec 8f 07 40
       0.0077107074 -0.009595266 0.32721645 2.1181593
0000a0 bd 77 22 be a1 3f ad bc 0d ae ec be 0c f4 9d be
       -0.15865989 -0.021148505 -0.4622654 -0.30850255
0000b0 12 03 43 3e 17 b7 b6 3c 75 78 1a 3f b1 ff c5 be
       0.1904414 0.0223041 0.6034005 -0.3867164
0000c0 f4 2b e5 3b 80 e3 1f bb dd 2f a0 3e 4a 54 04 bf
       0.006993765 -0.0024397075 0.31286517 -0.51691115
0000d0 52 bd 23 bc 4d 3b 2f 3e 76 4e 07 3f 3e da e7 3e
       -0.009993868 0.17112465 0.52854097 0.45283693
0000e0 7b 6d 75 bd 53 a5 04 3d be 39 21 bf 16 ab 27 3d
       -0.05991886 0.032384228 -0.6297873 0.040934645
0000f0 38 8d 2d 3d e5 dc fa 3b d1 6c 1c be 61 4e 30 3e
       0.042371005 0.007655727 -0.15275885 0.17217399
000100 a8 3c ab bd 27 b1 7f 3d df aa eb 3d 40 6f bf be
       -0.08361179 0.062424805 0.115072004 -0.37389565
000110 b2 3f aa ba 53 b1 01 bc ed 49 2b 3f 79 d3 03 bd
       -0.0012988953 -0.007915813 0.66909677 -0.032184098
000120 19 16 a4 3e 80 ed 2f 3d fe ad 89 3e 87 a8 b6 3c
       0.3204811 0.042951107 0.26890558 0.022297157
000130 79 97 2a be 15 93 4e be 31 81 a7 3e 5f c7 c3 3c
       -0.16659345 -0.20173295 0.32715753 0.023898778
000140 9f d0 17 3e 4a 91 7d bd 23 fd 17 3e 8a 62 00 bd
       0.14825676 -0.061906137 0.14842658 -0.031343974
000150 6a 80 1d bd a5 06 b3 3c d8 81 93 3e 9f 67 5c bf
       -0.038452543 0.021853754 0.2881 -0.86095613
000160 5f bc d2 bb f1 64 fb bd 22 5e 04 3e 82 26 b4 be
       -0.006431147 -0.122751124 0.12926534 -0.3518563
000170 09 8f b5 bd 9f 57 8b be 64 3b 54 3e 3a 7d 9e be
       -0.088651724 -0.27215287 0.2072578 -0.30954915
000180 72 06 76 3e 4f 92 fa 3d c0 5b 1c 3e 1c ae 24 bd
       0.24025896 0.122349374 0.15269375 -0.040205106
000190 85 ca 4d 3b 2c be c6 3c 77 63 38 3e f0 5d 8e bf
       0.0031401229 0.024260603 0.18006693 -1.1122417
0001a0 34 dc 10 3d d3 dd e1 3c b0 da 96 be 0a b9 c0 3f
       0.035366252 0.027571594 -0.2946372 1.505647
0001b0 29 01 76 bb 9d 74 ca bb b4 16 01 3f 7b 63 54 be
       -0.0037537313 -0.006178452 0.5042527 -0.20741074
0001c0 18 7f ec bd 22 6a 08 3e 93 08 22 3d d7 45 d8 bd
       -0.11547679 0.13321736 0.03955896 -0.10560196
0001d0 4c 85 23 3e d1 cb 5e be 4f 56 e8 be c6 c2 ec 3e
       0.15968817 -0.21757437 -0.45378348 0.4624235
0001e0 bd a4 a6 3d c0 68 c9 3d 0d a5 ef be c6 72 17 3f
       0.0813689 0.098344326 -0.4680561 0.59159505
0001f0 28 e7 84 bd c5 68 46 be 76 72 74 be a7 88 42 be
       -0.06489402 -0.19375904 -0.23871788 -0.18997441
000200 9d 0e ab bd a3 59 7a 3e 17 28 19 3e c0 3b b6 be
       -0.08352397 0.24448256 0.149567 -0.3559246
000210 b0 a6 03 3d ca c9 5e bc 92 ee db be 6f 21 28 bf
       0.032141387 -0.013597915 -0.42955452 -0.65676016
000220 0e 8d 0c be 7c 60 e0 3d d8 9e 81 3e 10 26 7d 3e
       -0.13725683 0.10955903 0.253165 0.24721551
000230 23 78 dd bd 4d 08 5e 3e 62 a1 82 3d d7 0e 5f bd
       -0.1081393 0.21682854 0.063784376 -0.05445751
000240 23 55 ae bd 00 90 90 3e f6 94 ad bd f4 92 5a 3e
       -0.08512332 0.28234863 -0.08475678 0.2134512
000250 8b 7f f6 ba a4 df b5 b7 87 35 1f 3f 96 9b 11 bc
       -0.0018806321 -2.1681022e-05 0.6219105 -0.008887192
000260 ec 91 95 3e 65 2d 2a 3e 1e f5 3c 3e 2b 8c cd be
       0.29212892 0.16618879 0.1845288 -0.40146002
000270 eb df f0 bd b2 f5 02 be ce 80 23 be 21 41 27 bf
       -0.11761459 -0.12789038 -0.15967104 -0.65333754
000280 f2 69 87 bd 6e 5a 5b bd ed 90 ce 3e 29 c0 58 be
       -0.06612004 -0.053553037 0.40344945 -0.21167053
000290 aa b9 aa bc 43 48 2d bd f2 b6 01 bf 31 71 06 bf
       -0.020840485 -0.042305242 -0.5066978 -0.52516466
0002a0 82 a8 98 bd 81 a6 a1 3c e0 37 2b be 44 bb 44 bf
       -0.07454015 0.019732716 -0.16720533 -0.76848245
0002b0 35 5f 19 3c ce 44 2f bb fc 80 4b be 27 41 05 40
       0.009361078 -0.0026743892 -0.19873422 2.0821016
0002c0 4e ff ff bc 34 f3 40 3e 88 35 98 3e d6 7b 36 3f
       -0.031249668 0.18842775 0.2972834 0.7128271
0002d0 e6 6f 26 bd fa f2 5f bd 8e 74 28 be 07 90 20 3e
       -0.04063406 -0.05467508 -0.16450712 0.15679942
0002e0 f3 5c 1a be 00 18 3d bd cf 95 cf 3d 41 fb 13 bf
       -0.1507452 -0.046165466 0.101359956 -0.5780526
0002f0 cc 1f 08 3d 99 81 27 bc 19 c4 10 3f b7 0b a9 be
       0.03323345 -0.01022377 0.5654922 -0.3301675
000300 a3 62 36 be 1b 5c 47 be f0 c4 40 3e 2c f2 8c 3c
       -0.17811064 -0.19468729 0.18825126 0.01720532
000310 34 ab c8 3c 34 1d 87 3b d1 37 19 3f 76 7b fc be
       0.024495699 0.0041233543 0.59850794 -0.49312943
000320 4b 24 51 3e ff 54 03 3e c8 7d 14 3f 1e f6 0c 3f
       0.20424001 0.12825392 0.58004427 0.55063045
000330 e7 4b 87 be e8 e6 48 be d8 64 02 bd 1f 4f 2c 3f
       -0.26425096 -0.19619334 -0.031834453 0.6730823
000340 ed e4 e7 bc 30 4c 2a 3e 90 b5 cb 3e 9e af 51 3f
       -0.028307403 0.16630626 0.3978696 0.81908596
000350 8d 32 80 bd 9f 0e 82 3e 9f f6 07 3e 07 14 0c bd
       -0.06259642 0.2540178 0.13277672 -0.034198787
000360 0b 16 5b bd 01 c7 5e 3e d3 2f 2c 3e b1 af 97 3e
       -0.05348782 0.21755601 0.16815118 0.2962623
000370 7d dd 26 3e bf 5f 4c bd e9 ab cb 3e fe 1c 9c be
       0.16295429 -0.049895998 0.39779595 -0.3049087
000380 2d 8c 86 bd 57 b6 5c bd 51 55 03 bf c3 58 25 3e
       -0.06569705 -0.05388483 -0.5130206 0.16147141
000390 9b a7 35 3a 6f be 95 bb f5 e9 38 3e bf ee 6e bf
       0.0006929577 -0.0045698206 0.18057998 -0.9333305
0003a0 b0 7d 25 bd 17 c1 d1 3d b6 c9 ce 3e 83 ae f6 bd
       -0.040403068 0.10241907 0.40388268 -0.12045004
0003b0 42 f0 04 bc ea 01 87 ba 03 64 f3 be 78 b4 f0 3e
       -0.008113923 -0.0010300253 -0.4753724 0.47012687
0003c0 7c 0a 38 be 6f 4d 56 be b0 30 92 be b7 f1 17 3f
       -0.1797275 -0.20927976 -0.2855277 0.593532
0003d0 c1 6a 65 bb d2 c8 09 ba 38 b5 0b 3f b6 ea b2 bc
       -0.0035006257 -0.000525606 0.5457339 -0.021840435
0003e0 af d4 f7 bc 03 e6 91 be b1 0b b9 bd e6 bd de 3d
       -0.030252783 -0.28495798 -0.09035433 0.10876064
0003f0 1f ff 1d 3d 18 f2 ce 3b 20 4d bf be a6 5a e6 be
       0.03857338 0.006315481 -0.3736353 -0.44991034

sequential/dense_1/MatMul i1 [32, 64] scale=0.028050313 zero_point=0
000000 03 00 0f 1c 01 ff 0b fa 45 1b 06 fd fe ff 02 fc
       0.08415094 0.0 0.4207547 0.78540874 0.028050313 -0.028050313 0.30855343 -0.16830188 1.9354715 0.75735843 0.16830188 -0.08415094 -0.056100626 -0.028050313 0.056100626 -0.11220125
000010 05 32 fb fd 05 1c fd 09 fd fe 00 f5 03 0a f9 09
       0.14025156 1.4025156 -0.14025156 -0.08415094 0.14025156 0.78540874 -0.08415094 0.25245282 -0.08415094 -0.056100626 0.0 -0.30855343 0.08415094 0.28050312 -0.19635218 0.25245282
000020 04 fd fd 00 02 1c f8 06 f8 08 08 18 00 fa fb 07
       0.11220125 -0.08415094 -0.08415094 0.0 0.056100626 0.78540874 -0.2244025 0.16830188 -0.2244025 0.2244025 0.2244025 0.6732075 0.0 -0.16830188 -0.14025156 0.19635218
000030 01 ee 08 05 0a 06 fc 00 fe 32 08 08 05 11 06 09
       0.028050313 -0.50490564 0.2244025 0.14025156 0.28050312 0.16830188 -0.11220125 0.0 -0.056100626 1.4025156 0.2244025 0.2244025 0.14025156 0.4768553 0.16830188 0.25245282
000040 f4 05 07 16 fc fd fd fd 39 4d 01 ff 03 06 01 03
       -0.33660376 0.14025156 0.19635218 0.61710685 -0.11220125 -0.08415094 -0.08415094 -0.08415094 1.5988678 2.1598742 0.028050313 -0.028050313 0.08415094 0.16830188 0.028050313 0.08415094
000050 01 2e 04 03 00 02 f6 f8 f9 f1 0c fd 02 07 0d f7
       0.028050313 1.2903144 0.11220125 0.08415094 0.0 0.056100626 -0.28050312 -0.2244025 -0.19635218 -0.4207547 0.33660376 -0.08415094 0.056100626 0.19635218 0.36465406 -0.25245282
000060 ea 08 07 f9 fa 21 f6 00 08 03 03 2e 07 03 fd 1e
       -0.61710685 0.2244025 0.19635218 -0.19635218 -0.16830188 0.9256603 -0.28050312 0.0 0.2244025 0.08415094 0.08415094 1.2903144 0.19635218 0.08415094 -0.08415094 0.8415094
000070 07 0a 06 fb 01 03 04 fc 0a 09 fc 17 fe 1f fb 33
       0.19635218 0.28050312 0.16830188 -0.14025156 0.028050313 0.08415094 0.11220125 -0.11220125 0.28050312 0.25245282 -0.11220125 0.6451572 -0.056100626 0.8695597 -0.14025156 1.430566
000080 fb ff fd fa f9 02 fa fd 00 fa ff fd ff 01 f6 06
       -0.14025156 -0.028050313 -0.08415094 -0.16830188 -0.19635218 0.056100626 -0.16830188 -0.08415094 0.0 -0.16830188 -0.028050313 -0.08415094 -0.028050313 0.028050313 -0.28050312 0.16830188
000090 f7 07 05 07 fa f9 ff 02 fb ff fe fa f8 fb fa f8
       -0.25245282 0.19635218 0.14025156 0.19635218 -0.16830188 -0.19635218 -0.028050313 0.056100626 -0.14025156 -0.028050313 -0.056100626 -0.16830188 -0.2244025 -0.14025156 -0.16830188 -0.2244025
0000a0 fc 03 03 05 08 02 f7 03 fb 00 f9 f8 fc 00 04 ff
       -0.11220125 0.08415094 0.08415094 0.14025156 0.2244025 0.056100626 -0.25245282 0.08415094 -0.14025156 0.0 -0.19635218 -0.2244025 -0.11220125 0.0 0.11220125 -0.028050313
0000b0 f8 05 08 05 f9 06 ff 00 ff f8 fa 00 ff fa ff fe
       -0.2244025 0.14025156 0.2244025 0.14025156 -0.19635218 0.16830188 -0.028050313 0.0 -0.028050313 -0.2244025 -0.16830188 0.0 -0.028050313 -0.16830188 -0.028050313 -0.056100626
0000c0 fd f7 05 4d ff 05 ff fc 61 0f f4 0c 0d 07 ea f9
       -0.08415094 -0.25245282 0.14025156 2.1598742 -0.028050313 0.14025156 -0.028050313 -0.11220125 2.7208803 0.4207547 -0.33660376 0.33660376 0.36465406 0.19635218 -0.61710685 -0.19635218
0000d0 f8 65 0d 07 ff 0a 09 f3 01 fd f7 08 f9 f4 ef f7
       -0.2244025 2.8330815 0.36465406 0.19635218 -0.028050313 0.28050312 0.25245282 -0.36465406 0.028050313 -0.08415094 -0.25245282 0.2244025 -0.19635218 -0.33660376 -0.4768553 -0.25245282
0000e0 fd fd 09 fc ff 4b ff f3 0a ef f7 16 0c fe 06 1a
       -0.08415094 -0.08415094 0.25245282 -0.11220125 -0.028050313 2.1037734 -0.028050313 -0.36465406 0.28050312 -0.4768553 -0.25245282 0.61710685 0.33660376 -0.056100626 0.16830188 0.7293081
0000f0 08 1a 09 fd 00 05 05 12 fa 00 08 f3 05 3d fc 05
       0.2244025 0.7293081 0.25245282 -0.08415094 0.0 0.14025156 0.14025156 0.50490564 -0.16830188 0.0 0.2244025 -0.36465406 0.14025156 1.7110691 -0.11220125 0.14025156
