models/CVD_Classification_Model.tflite (tflite, 5752 bytes, 5 tensors)

sequential/dense_2/MatMul f4 [1, 32]
-0.25480825 0.059635848 -0.06009442 -0.07369026 -0.18130156 0.24936308 0.10709738 -0.17078526
-0.27009884 0.25006682 -0.29195768 -0.019069765 0.3428722 -0.18769088 0.22895755 -0.063836664
0.93536294 -0.11235789 0.35408276 0.10121114 0.0040310873 0.48371738 0.11148979 0.12599377
0.29427284 0.3349499 -0.21818815 0.17986602 -0.057570238 -0.0051050703 -0.3011875 -0.21020646
00000000: 3a76 82be b844 743d 9125 76bd ebea 96bd
00000010: 1ea7 39be 0959 7f3e df55 db3d 55e2 2ebe
00000020: 654a 8abe c208 803e 7a7b 95be 3238 9cbc
00000030: f28c af3e 0a32 40be d973 6a3e ccbc 82bd
00000040: f273 6f3f e51b e6bd 564a b53e c947 cf3d
00000050: 3617 843b cea9 f73e c254 e43d 8304 013e
00000060: eeaa 963e 8e7e ab3e b76c 5fbe cc2e 383e
00000070: c5ce 6bbd 6f48 a7bb 3f35 9abe 5d40 57be

sequential/dense_1/BiasAdd/ReadVariableOp f4 [32]
0.0 0.0 -0.04831993 -0.0047971997 0.05785113 -0.0025335643 -0.033887915 0.002028547
0.00759138 -0.04005547 0.011261206 -0.008531473 -0.030975316 -6.993109e-06 -0.042124484 -0.023334138
-0.06326271 0.0052487133 -0.039569028 -0.05682556 -0.042612426 -0.019093579 -0.046811666 0.026505096
0.0 -0.04589683 0.0 0.0 0.06583223 0.009790329 -0.00094718416 0.0
00000000: 0000 0000 0000 0000 1eeb 45bd d431 9dbb
00000010: 4ef5 6c3d 280a 26bb 0ece 0abd 5ff1 043b
00000020: 1cc1 f83b 3411 24bd ec80 383c 97c7 0bbc
00000030: f2bf fdbc 59a6 eab6 b98a 2cbd 3c27 bfbc
00000040: e18f 81bd 66fd ab3b 2213 22bd ebc1 68bd
00000050: 5e8a 2ebd 236a 9cbc 97bd 3fbd 3721 d93c
00000060: 0000 0000 50fe 3bbd 0000 0000 0000 0000
00000070: 0cd3 863d 9e67 203c 744c 78ba 0000 0000

sequential/dense/BiasAdd/ReadVariableOp f4 [64]
0.0 0.0 0.0 -0.013275103 -0.019562703 -0.028168352 0.0 -0.015518069
-0.037753068 0.0 -0.14959858 -0.072461195 0.0053075976 -0.14761676 0.0 0.0
-0.009243512 -0.04484892 0.0317402 0.0 0.0137609495 -0.0736504 0.0 0.0
-0.01276746 0.0 -0.083217636 -0.013315877 -0.031166838 -0.05307805 -0.10259742 -0.11703337
-0.05589026 -0.001263672 -0.08541276 0.0 -0.10740789 0.0 -0.09173204 0.0
-0.13041453 0.0 0.04731203 -0.07948224 -0.01846261 -0.1280131 -0.0128882835 0.0
0.0 -0.0023840067 -0.08658436 0.0 0.0 -0.05013202 -0.026464423 0.0
-0.103831075 0.0 0.0 0.0 0.0 0.0 -0.14966044 0.025625093
00000000: 0000 0000 0000 0000 0000 0000 d17f 59bc
00000010: f641 a0bc 51c1 e6bc 0000 0000 803f 7ebc
00000020: f6a2 1abd 0000 0000 5f30 19be 8966 94bd
00000030: 5beb ad3b d928 17be 0000 0000 0000 0000
00000040: 1972 17bc 80b3 37bd 0302 023d 0000 0000
00000050: 9b75 613c 05d6 96bd 0000 0000 0000 0000
00000060: 9c2e 51bc 0000 0000 026e aabd d62a 5abc
00000070: 9951 ffbc 5f68 59bd 991e d2bd 31af efbd
00000080: 2fed 64bd cca1 a5ba e3ec aebd 0000 0000
00000090: abf8 dbbd 0000 0000 02de bbbd 0000 0000
000000a0: 638b 05be 0000 0000 42ca 413d 96c7 a2bd
000000b0: e63e 97bc de15 03be 6129 53bc 0000 0000
000000c0: 0000 0000 ff3c 1cbb 2453 b1bd 0000 0000
000000d0: 0000 0000 3c57 4dbd ebcb d8bc 0000 0000
000000e0: 63a5 d4bd 0000 0000 0000 0000 0000 0000
000000f0: 0000 0000 0000 0000 9640 19be b7eb d13c

sequential/dense/MatMul f4 [64, 4]
0.24082863 -0.2885047 -0.10791677 0.024775833 -0.19415882 -0.15760618 -0.0800239 -0.100676686
-0.013467997 -0.22303796 -0.09137982 -0.21135747 0.020879192 -0.1424471 -0.27997395 0.206926
0.0849662 -0.08645184 -0.040615506 0.0011636054 -0.141571 0.10783811 -0.33217165 0.03977048
-0.19569981 0.08871588 -0.23480931 -0.033326805 -0.05323283 -0.008620426 -0.29413348 0.101111755
-0.13885061 0.12022643 -0.0010104224 -0.043387067 -0.06943257 -0.17957348 0.0134314 0.078680426
-0.034837335 -0.06410562 0.22054426 0.09481247 -0.30855498 0.14324702 0.20981793 0.11595561
-0.021884175 0.033086017 -0.7677702 0.19200043 0.034177963 0.10238854 -0.38948458 -0.07177867
0.087325186 -0.11204846 -0.18279654 -0.27178898 -0.14661713 -0.17624617 -0.25821283 0.24320346
-0.12740172 -0.029762346 -0.18868011 0.28719932 0.24002646 -0.22389407 0.17136401 -0.18083407
-0.17612833 -0.0077658417 -0.09394254 0.35077518 -0.2449551 0.10614443 0.21580613 -0.2428503
0.07883139 -0.13625766 0.46154177 -0.16389081 -0.016294273 0.17821662 -0.193741 -0.24585041
-0.09978916 -0.21513186 0.07620099 0.17853561 0.04356298 -0.23962122 -0.26350662 0.1272974
-0.21271348 0.14124228 -0.37487176 0.19883223 0.052324593 -0.23879029 -0.04283458 0.003011316
-0.13495691 -0.017181925 0.26478544 0.1365917 0.25052345 -0.27757534 -0.33842945 0.11699904
-0.08543227 -0.009871597 -0.030002892 0.051178824 -0.2146771 0.07544014 -0.23116198 0.19029415
0.18774661 -0.15496166 -0.15935428 0.06760851 -0.0062189605 -0.042069007 -0.038526993 0.25713557
0.22320133 -0.25698015 0.38180703 -0.013700209 -0.033995975 -0.11649409 0.18894753 -0.07111923
-0.014569523 -0.046442494 0.7179732 -0.1947936 -0.20959848 0.009979427 -0.1473111 -0.22104207
0.05573053 0.014693773 -0.13659196 -0.14216281 0.03551972 -0.1787203 -0.20078702 0.1201469
0.057404183 0.15509878 0.009054292 -0.062047575 0.17690411 -0.289144 -0.013519496 -0.14436474
0.108508214 0.03024146 -0.10409969 -0.076678686 0.13611355 -0.23824772 -0.22818755 0.00035437942
-0.05080477 -0.1349913 0.17774498 0.30225492 -0.33325547 0.18964803 0.3234174 -0.005486877
-0.29906777 0.2536757 0.17697066 -0.20895757 0.12588333 -0.025067242 0.030219758 0.17828935
-0.26448467 -0.0056811757 -0.034890376 0.24144237 0.17593223 -0.29501832 -0.24510135 0.0030125678
-0.28040215 -0.29683265 -0.22682588 -0.11342034 0.115699776 -0.11162223 -0.30638 0.19389684
0.07506679 -0.061816443 -0.333329 0.05763849 -0.10865785 -0.036491364 -0.1700048 0.12676859
-0.1818935 -0.20352574 -0.23856062 -0.27190322 0.09610643 0.2344408 -0.2866645 0.09312566
-0.16383094 0.13326967 0.017965008 -0.038005915 -0.0608214 -0.14123552 0.24216789 -0.24032058
0.023418544 0.08102787 -0.36131734 0.12321196 -0.15000413 -0.00496158 -0.20048292 -0.06969312
-0.022174865 -0.24427713 -0.040743887 0.015586108 -0.27621472 0.03095305 0.185871 0.043558657
0.17362905 -0.17609936 -0.1764677 -0.2581746 -0.29689732 -0.21703546 0.19553989 -0.17950805
0.07907084 -0.06502644 -0.07895897 0.0006864387 0.038747918 -0.19918033 -0.19485779 0.3045391
00000000: c89b 763e e3b6 93be 7803 ddbd b0f6 ca3c
00000010: 92d1 46be 8463 21be 92e3 a3bd 942f cebd
00000020: e0a8 5cbc 1064 64be 5825 bbbd 186e 58be
00000030: d70a ab3c a7dd 11be bf58 8fbe 69e4 533e
00000040: c202 ae3d aa0d b1bd 725c 26bd 1e84 983a
00000050: fdf7 10be 3ada dc3d 6712 aabe 5fe6 223d
00000060: 8865 48be acb0 b53d da71 70be b081 08bd
00000070: ab0a 5abd b03c 0dbc aa98 96be ae13 cf3d
00000080: db2e 0ebe 4639 f63d 2670 84ba a3b6 31bd
00000090: aa32 8ebd 1ce2 37be 600f 5c3c 3423 a13d
000000a0: 98b1 0ebd cf49 83bd 5bd6 613e 0a2d c23d
000000b0: ebfa 9dbe 59af 123e 83da 563e 237a ed3d
000000c0: 7146 b3bc 3485 073d 968c 44bf c39b 443e
000000d0: 31fe 0b3d 15b1 d13d 866a c7be b200 93bd
000000e0: 8cd7 b23d aa79 e5bd 042f 3bbe ed27 8bbe
000000f0: cd22 16be e079 34be 7934 84be 540a 793e
00000100: 9975 02be 2ad0 f3bc 5c35 41be ca0b 933e
00000110: 7fc9 753e 7d44 65be 0c7a 2f3e 912c 39be
00000120: fc5a 34be 9a78 febb f264 c0bd ce98 b33e
00000130: 82d5 7abe 4062 d93d 48fc 5c3e c0ad 78be
00000140: 5a72 a13d 2187 0bbe 344f ec3e fed2 27be
00000150: 917b 85bc 6b7e 363e 0a64 46be 36c0 7bbe
00000160: 425e ccbd 874b 5cbe 440f 9c3d 0ad2 363e
00000170: 186f 323d 445f 75be 57ea 86be 405a 023e
00000180: 90d1 59be d1a1 103e 31ef bfbe ad9a 4b3e
00000190: 5052 563d 7185 74be 5073 2fbd 8059 453b
000001a0: 2532 0abe 1cc1 8cbc f591 873e b2de 0b3e
000001b0: 9c44 803e 5b1e 8ebe a046 adbe 319d ef3d
000001c0: 1df7 aebd 7bbc 21bc a0c8 f5bc e3a0 513d
000001d0: 50d4 5bbe 5c80 9a3d bab5 6cbe 78dc 423e
000001e0: a640 403e 45ae 1ebe c52d 23be 5576 8a3d
000001f0: 6cc8 cbbb 8d50 2cbd 7bce 1dbd 46a7 833e
00000200: e48e 643e e792 83be 367c c33e d776 60bc
00000210: 5d3f 0bbd 7494 eebd 767b 413e f5a6 91bd
00000220: 02b5 6ebc 7c3a 3ebd 17cd 373f f977 47be
00000230: fca0 56be c080 233c b9d8 16be da58 62be
00000240: b245 643d 27be 703c c3de 0bbe 2193 11be
00000250: 207d 113d 7402 37be 1d9b 4dbe 940f f63d
00000260: a620 6b3d 37d2 1e3e 7458 143c 9925 7ebd
00000270: 5a26 353e af0a 94be e080 5dbc 5ad4 13be
00000280: 8e39 de3d f0bc f73c 3832 d5bd b709 9dbd
00000290: 5a61 0b3e 36f7 73be ffa9 69be 00cc b939
000002a0: aa18 50bd 293b 0abe c802 363e 28c1 9a3e
000002b0: 76a0 aabe 1833 423e f796 a53e 43cb b3bb
000002c0: 691f 99be c8e1 813e cc37 353e f9f8 55be
000002d0: 8fe7 003e d159 cdbc 6d8f f73c 7c91 363e
000002e0: 896a 87be 2829 babb 36e9 0ebd ab3c 773e
000002f0: 9427 343e a40c 97be d9fb 7abe 806e 453b
00000300: df90 8fbe 73fa 97be 0b45 68be ec48 e8bd
00000310: 01f4 ec3d 329a e4bd d7dd 9cbe e58c 463e
00000320: 9ebc 993d 3d33 7dbd 19aa aabe 5616 6c3d
00000330: 0288 debd f877 15bd bd15 2ebe a0cf 013e
00000340: 4a42 3abe 0d69 50be 3c49 74be e636 8bbe
00000350: 73d3 c43d 4011 703e b0c5 92be abb8 be3d
00000360: 4cc3 27be d877 083e 5a2b 933c 17ac 1bbd
00000370: dc1f 79bd 0ba0 10be dcfa 773e 9916 76be
00000380: 3fd8 bf3c f1f1 a53d 96fe b8be 8d56 fc3d
00000390: af9a 19be c094 a2bb 654b 4dbe 44bb 8ebd
000003a0: 10a8 b5bc c923 7abe 10e3 26bd e05c 7f3c
000003b0: 046c 8dbe 4091 fd3c f854 3e3e 906a 323d
000003c0: d0cb 313e 6453 34be f3b3 34be 762f 84be
000003d0: ed02 98be 8b3e 5ebe 9c3b 483e f5d0 37be
000003e0: e4ef a13d 952c 85bd 3eb5 a1bd 1ff2 333a
000003f0: 23b6 1e3d eef5 4bbe cd88 47be 8dec 9b3e

sequential/dense_1/MatMul i1 [32, 64] scale=0.020781284 zero_point=0
-0.06234385 0.1246877 -0.1246877 -0.08312514 0.18703155 -0.1246877 -0.08312514 0.1246877
-0.10390642 0.20781285 -0.18703155 -0.18703155 -0.145469 0.020781284 -0.020781284 0.0
-0.22859412 -0.20781285 0.0 -0.08312514 0.20781285 -0.10390642 -0.10390642 0.06234385
0.020781284 -0.10390642 0.1246877 -0.06234385 -0.145469 -0.20781285 0.08312514 0.2493754
0.08312514 -0.2493754 -0.020781284 0.04156257 -0.18703155 0.0 0.020781284 0.22859412
-0.020781284 -0.020781284 -0.10390642 -0.020781284 -0.18703155 0.08312514 0.04156257 0.22859412
-0.10390642 -0.08312514 -0.10390642 -0.10390642 0.04156257 -0.16625027 0.145469 -0.20781285
-0.10390642 0.145469 0.18703155 0.1246877 0.04156257 0.0 -0.1246877 0.2493754
0.10390642 0.08312514 -0.18703155 -0.04156257 0.06234385 -0.06234385 0.145469 0.145469
-0.16625027 -0.04156257 0.16625027 -0.18703155 0.08312514 -0.1246877 0.20781285 -0.16625027
0.04156257 -0.2493754 -0.16625027 -0.2493754 0.0 0.08312514 -0.18703155 -0.04156257
-0.10390642 0.16625027 0.08312514 0.08312514 0.16625027 -0.020781284 -0.08312514 0.04156257
-0.1246877 -0.08312514 0.20781285 -0.16625027 0.08312514 0.04156257 0.04156257 0.18703155
-0.2493754 0.1246877 -0.08312514 -0.16625027 0.0 -0.06234385 0.06234385 -0.22859412
0.020781284 -0.04156257 0.0 -0.04156257 0.0 -0.08312514 0.18703155 0.04156257
0.06234385 0.16625027 0.16625027 0.10390642 0.0 0.1246877 0.22859412 -0.06234385
-0.20781285 -0.04156257 -0.04156257 0.0 -0.145469 0.16625027 0.145469 -0.20781285
0.22859412 0.10390642 -0.08312514 0.20781285 0.10390642 0.0 -0.20781285 -0.08312514
-0.16625027 -0.20781285 0.04156257 0.04156257 0.18703155 -0.145469 0.20781285 0.20781285
-0.2493754 -0.16625027 0.22859412 0.18703155 -0.06234385 0.10390642 -0.18703155 0.1246877
-0.18703155 -0.020781284 0.10390642 -0.16625027 -0.2493754 -0.04156257 -0.22859412 0.1246877
-0.1246877 0.20781285 -0.08312514 -0.16625027 -0.22859412 0.04156257 -0.20781285 -0.06234385
-0.16625027 -0.10390642 -0.20781285 -0.145469 0.1246877 0.0 -0.22859412 -0.18703155
0.145469 0.22859412 0.20781285 0.0 -0.020781284 0.16625027 0.04156257 -0.2493754
0.04156257 0.0 -0.18703155 0.22859412 -0.2493754 -0.18703155 -0.145469 -0.08312514
-0.08312514 0.020781284 -0.08312514 0.1246877 -0.2493754 -0.1246877 -0.08312514 -0.08312514
0.1246877 0.10390642 0.145469 -0.10390642 -0.18703155 -0.1246877 -0.22859412 -0.08312514
-0.2493754 0.18703155 -0.08312514 -0.1246877 -0.1246877 0.08312514 -0.06234385 0.04156257
0.145469 -0.10390642 -0.04156257 0.04156257 0.10390642 0.06234385 -0.16625027 0.22859412
-0.27015668 0.1246877 0.16625027 -0.06234385 -0.10390642 0.145469 0.18703155 0.1246877
0.16625027 -0.020781284 -0.08312514 -0.18703155 0.20781285 -0.04156257 0.145469 -0.08312514
-0.18703155 0.18703155 -0.22859412 0.020781284 -0.10390642 0.04156257 0.18703155 0.08312514
00000000: fd06 fafc 09fa fc06 fb0a f7f7 f901 ff00
00000010: f5f6 00fc 0afb fb03 01fb 06fd f9f6 040c
00000020: 04f4 ff02 f700 010b ffff fbff f704 020b
00000030: fbfc fbfb 02f8 07f6 fb07 0906 0200 fa0c
00000040: 0504 f7fe 03fd 0707 f8fe 08f7 04fa 0af8
00000050: 02f4 f8f4 0004 f7fe fb08 0404 08ff fc02
00000060: fafc 0af8 0402 0209 f406 fcf8 00fd 03f5
00000070: 01fe 00fe 00fc 0902 0308 0805 0006 0bfd
00000080: f6fe fe00 f908 07f6 0b05 fc0a 0500 f6fc
00000090: f8f6 0202 09f9 0a0a f4f8 0b09 fd05 f706
000000a0: f7ff 05f8 f4fe f506 fa0a fcf8 f502 f6fd
000000b0: f8fb f6f9 0600 f5f7 070b 0a00 ff08 02f4
000000c0: 0200 f70b f4f7 f9fc fc01 fc06 f4fa fcfc
000000d0: 0605 07fb f7fa f5fc f409 fcfa fa04 fd02
000000e0: 07fb fe02 0503 f80b f306 08fd fb07 0906
000000f0: 08ff fcf7 0afe 07fc f709 f501 fb02 0904
