models/CVD_Classification_Model.tflite (tflite, 5784 bytes, 5 tensors)

sequential_2/dense_8/MatMul f4 [1, 32]
00000000: aea2 80be 9517 1bbe e2ea 9f3e 53d5 80be
00000010: 6a55 bfbe d0a1 583e 2fd6 293d 93f4 023f
00000020: 377e bfbe 7848 d13c 72a2 fc3c 41f5 833d
00000030: beb2 033e 10f1 c43e 2320 a7b9 927e 44be
00000040: 3003 4fbd b483 48bd a2bd 9dbe a7b3 c7be
00000050: 2131 f93c 2266 893d 85f8 f23e 7568 e8bc
00000060: 6718 513e 0d46 9bbd 4af4 dfbd bd9f bc3d
00000070: c13b 9f3d 5849 c6be d608 183d a007 903d
-0.25124115 -0.15145715 0.3123389 -0.25162753 -0.37369853 0.21155477 0.041464027 0.5115444
-0.37400982 0.025547251 0.030839179 0.06443263 0.12861153 0.38465166 -0.00031876666 -0.19188908
-0.05054015 -0.048953727 -0.3080874 -0.3900425 0.030418934 0.067089334 0.4745523 -0.028370121
0.20419465 -0.075817205 -0.10935266 0.09210155 0.07775069 -0.38727832 0.0371178 0.07032704

sequential_2/dense_7/BiasAdd/ReadVariableOp f4 [32]
00000000: 66d0 0dbc 3cdb 70ba 8c13 01bc 0000 0000
00000010: 0000 0000 92e6 0ebc dc27 8fbc e681 033c
00000020: 0000 0000 76d1 cdbc 25e1 4fbd 6fca 80bc
00000030: 5404 0dbc 8620 eabb afb0 fcbc 9ad0 b23b
00000040: 0000 0000 4283 72b6 d0ad 023b fddd 293b
00000050: a73c bfbb 2fdd 6cbc 71b6 9cbb e018 08b9
00000060: 0f84 fcbb 3494 dabb abec 29bb e3d5 4ebc
00000070: 899b 89bc 0000 0000 bd55 b635 0000 0000
-0.008655643 -0.0009187942 -0.0078781955 0.0 0.0 -0.008721964 -0.017475061 0.008026576
0.0 -0.025124293 -0.050751824 -0.015721528 -0.008606989 -0.0071449904 -0.030845968 0.005456996
0.0 -3.6137212e-06 0.0019940026 0.002591967 -0.0058360877 -0.014457031 -0.004782491 -0.00012979237
-0.0077061723 -0.006670499 -0.0025928419 -0.012624237 -0.016797798 0.0 1.358501e-06 0.0

sequential_2/dense_6/BiasAdd/ReadVariableOp f4 [64]
00000000: 0000 0000 c416 51bb 0000 0000 3da1 09bd
00000010: 0091 60bc 77b6 8b3c d382 343c 208d 58bb
00000020: 0000 0000 996c 7abd 2191 46bc 0000 0000
00000030: 6f0e 7abd 0b1c a7bc 0000 0000 0000 0000
00000040: 0000 0000 0000 0000 eeb5 52bc 0000 0000
00000050: f2f1 5e3d 0000 0000 27b3 bdbc 0000 0000
00000060: b258 16bc 84de 9cbd ad0e b1bb 0000 0000
00000070: 0000 0000 d0da 68bc 583d 4fbc 307b 19bc
00000080: b39a d13c c78b c3bb d8e0 04bd 0000 0000
00000090: 0000 0000 0f44 eebc 8817 7abc 9443 89bc
000000a0: 0000 0000 0000 0000 0000 0000 0000 0000
000000b0: c4da 89bc 852a 5e3c 0000 0000 0000 0000
000000c0: 0000 0000 4fe1 9e3c 5626 cabc 6438 61bd
000000d0: 0000 0000 d7ad 9dbc f29b 1bbd 891b 4bbc
000000e0: 0000 0000 97c1 b0bc 72c8 71bb 4083 9a3c
000000f0: 0000 0000 3390 ef3c 7356 133c c8bf bdbc
0.0 -0.0031904439 0.0 -0.033601034 -0.013706446 0.01705478 0.011017519 -0.0033043101
0.0 -0.061138723 -0.012119562 0.0 -0.06104892 -0.020399114 0.0 0.0
0.0 0.0 -0.012860758 0.0 0.054429956 0.0 -0.023156716 0.0
-0.00917642 -0.07659629 -0.005403361 0.0 0.0 -0.014212325 -0.012648903 -0.009367749
0.025586462 -0.0059675905 -0.03244099 0.0 0.0 -0.029085187 -0.015264399 -0.016755857
0.0 0.0 0.0 0.0 -0.016827948 0.013559942 0.0 0.0
0.0 0.019394545 -0.024676483 -0.05498542 0.0 -0.019247932 -0.037990518 -0.012396702
0.0 -0.021576686 -0.0036893156 0.018861413 0.0 0.029243564 0.008992779 -0.023162737

sequential_2/dense_6/MatMul f4 [64, 4]
00000000: b2df 57be 2678 debd 2037 0bbc 3644 283e
00000010: f601 983d 2525 20be b5d6 6ebd c36d 3c3e
00000020: 45d8 0dbe acdb 66be 5e0a 203e d552 8bbe
00000030: 760d 7c3c e001 103e edc3 f6bd e288 273e
00000040: 0d91 53bd c5d1 f03d 8b1a 84be 68ff 83be
00000050: 4fbd bd3d 25c0 55be 3f8a 84be 365e 8e3e
00000060: 1dd6 a8bd e67f febd 1714 513d ef59 883e
00000070: f7bf 66be b00e 663e 711f 8cbe 0b00 963d
00000080: cc1a 1c3e ba6f 6cbe 18a6 4ebd ccf4 73be
00000090: c4b0 ac3d efa2 3b3e 7915 f03d e6e3 b2bd
000000a0: e1f4 593e 59d4 8d3e b256 92be f05d 5dbe
000000b0: 0a56 30be e3c5 04be b594 04be 5848 44be
000000c0: 7a20 6c3c 24c5 f33c 3a41 973e 803c e5bd
000000d0: 5197 373e f612 4bbd 28b4 a03e acd2 493e
000000e0: af0c 76be 4252 a9bd ea53 48be b629 2e3e
000000f0: 55fc 00be 9c02 fa3d 7c8a 8abe be96 4abe
00000100: d868 70be b8da b8bd e28e 46be 286a 3e3e
00000110: 5069 49bd 90ec 6dbd 9d55 96be ac9e bd3d
00000120: 2b12 f8bc bb14 933d 2776 0cbf f096 893d
00000130: 0096 17bb db25 93be 267d 943e b048 e8bc
00000140: 2af6 173e 2a56 1dbe 0e44 02bf 2c3d 893e
00000150: 2490 84be fcfd a63d 7469 993d 54d1 40bd
00000160: 4857 303e 4e13 2abd ff28 393d 76b1 183e
00000170: 2c23 01be ea6d abbd 3908 19be 301c 8cbe
00000180: 6180 2ebe 2fc5 563e 317b 2b3d 0c58 8ebe
00000190: be61 0abd 4459 e33d 078d 4b3d cfd2 bdbd
000001a0: 4cd4 113e 2b45 e4bd 1d48 a9be da14 473e
000001b0: ce87 f1bd dd7d 2bbe 6cce 6b3e f0ab dd3d
000001c0: 18e4 08bd 39dc 72be 874f 74be 484d 153e
000001d0: c74e 6bbe 60a0 a73d a38d 43be c26e 533e
000001e0: 6043 b03d 263a a4bc 91d5 f0bd 2904 a1bc
000001f0: ebc3 2b3e b982 483e 5abd 45be c96e ec3c
00000200: 481c eebd db45 783e d92a 1cbf ce3b 23be
00000210: e7cb a0bc b9a6 e43d 8023 a6bb f9ac 86be
00000220: cf8d 183e d797 5abc 113c 73be 690c 21be
00000230: ba94 a2bd f9ff 10be 4ca9 783e 4838 96be
00000240: e19c 52be 00b2 84bb 6475 6cbd 30d3 613d
00000250: 0a97 12be cf4d 4c3d 3d75 ad3e 3b54 6d3e
00000260: f125 663e 1c65 0a3e 7e90 42be 308b 863e
00000270: d56c 763e b365 85be 1e30 803e 382a 4e3d
00000280: a666 32be 54e9 88bd 80b8 e9bb 46c7 9bbd
00000290: 822b d6bd e32c 94be f83d 0cbd 0055 2bbc
000002a0: 0f0d 81be d260 38be 7420 043e d3a6 92be
000002b0: 88a2 153d 34bc 89be f082 6dbe 08ed 6c3d
000002c0: 7bda 373e 6921 8a3e d112 f1bc 4362 96bc
000002d0: 17dd 9f3d 4148 dbbd bfe6 063f 61bc 2dbe
000002e0: a09b 41bc 2a94 1abe 5e0c e1bd dc86 43be
000002f0: d30f 8cbe 2428 8dbd 8c31 05be 8e56 473e
00000300: 0d76 79be 469f 28be 002f d7bc 50e6 06be
00000310: f3b1 c93d c6d4 b5bc 97d6 4bbe 1f2d 07bd
00000320: c6da 2fbd 1910 013e 4798 4abe 8b52 40be
00000330: f10c eb3d d301 08be b2b3 8d3e bef1 90bc
00000340: f8e0 e83d bc85 1bbe c885 2e3e 1059 85be
00000350: 04fc 4f3d 1648 9d3d cb8e 60be 27dd a33d
00000360: 938e 0c3e cd6b 5a3e 20fa ac3d b943 8b3d
00000370: 0c26 003e e50a 41be 5533 f6bd b139 903e
00000380: f6ad 363e a2a8 6cbe a810 273d eeb9 73be
00000390: 9ffd 85bb 8f0c bc3d 40ad 843e ef85 89be
000003a0: 6471 0dbe b5d8 403e 03d9 c7be b9e0 b93d
000003b0: 88af 42be 1eb1 af3d a7cf 07be f4a8 8c3e
000003c0: a23e 353e 5115 5cbe 80ce 62bb 4ab1 e0bd
000003d0: 6308 8a3e d260 f2bd 3fa4 57be f969 efbd
000003e0: 3251 de3d 3b3a f33c e7e3 dabe 46c4 6cbe
000003f0: e6f2 b4bc 1bdf 9b3d aaab c8be 8d9e b53d
-0.21081427 -0.1086276 -0.00849703 0.1643227 0.07422249 -0.1563917 -0.05831023 0.18401246
-0.13852032 -0.22544736 0.15628955 -0.27211633 0.015384069 0.14063215 -0.120490886 0.1636081
-0.051652003 0.1175876 -0.258015 -0.25780797 0.092646234 -0.20874079 -0.25886723 0.27806252
-0.08243964 -0.124267384 0.05104455 0.26631114 -0.22534166 0.2246654 -0.27367738 0.07324227
0.15244597 -0.23089495 -0.050451368 -0.23823851 0.08432153 0.18323873 0.117228456 -0.087348744
0.2128482 0.2770107 -0.28581768 -0.21617866 -0.17220321 -0.12966113 -0.12947352 -0.19168222
0.01441204 0.02975709 0.2954195 -0.1119318 0.17928816 -0.04957863 0.31387448 0.19709271
-0.24028276 -0.082676426 -0.1956326 0.17008099 -0.12596257 0.12207529 -0.2705878 -0.19784066
-0.23477495 -0.09026092 -0.19390443 0.18595183 -0.0491727 -0.05808693 -0.29362193 0.0925878
-0.0302821 0.071816884 -0.54867786 0.06718242 -0.0023130178 -0.2873982 0.2900173 -0.028354973
0.14839998 -0.153649 -0.50885093 0.26804483 -0.2589122 0.081539124 0.07490817 -0.04707463
0.17220795 -0.041522317 0.045205113 0.14911446 -0.12611073 -0.08370574 -0.14944543 -0.27365255
-0.1704116 0.20973657 0.04186553 -0.2780155 -0.03378462 0.111010104 0.04969504 -0.09268724
0.14241141 -0.11146005 -0.3306283 0.19441548 -0.11793481 -0.16747232 0.23027962 0.1082381
-0.033420652 -0.23716821 -0.23858462 0.14580262 -0.2297927 0.08184886 -0.19096999 0.2064772
0.08606601 -0.020047259 -0.117594846 -0.019655304 0.16773956 0.19581117 -0.19310513 0.02886142
-0.11626488 0.24245398 -0.6100288 -0.15940782 -0.019628478 0.11164612 -0.00507015 -0.26303843
0.14897846 -0.0133418655 -0.23753382 -0.1572739 -0.079385236 -0.14160146 0.24283332 -0.29339814
-0.20567657 -0.0040495396 -0.05772914 0.055133045 -0.1431543 0.04987889 0.33878508 0.23176663
0.22475411 0.13515133 -0.19000432 0.26278067 0.24064954 -0.26054153 0.2503671 0.05033323
-0.1742197 -0.06685129 -0.00713259 -0.07606368 -0.10457517 -0.28940496 -0.034238786 -0.010457277
-0.25205275 -0.18005684 0.12903005 -0.28642902 0.036531955 -0.269014 -0.2319448 0.057843238
0.17954437 0.26978615 -0.029427918 -0.018357402 0.078058414 -0.10707141 0.5269584 -0.16966392
-0.011816889 -0.15095583 -0.10988687 -0.19094414 -0.27355823 -0.06892422 -0.13007182 0.19466612
-0.24361439 -0.16467008 -0.026267529 -0.13173795 0.09848394 -0.022196185 -0.19906078 -0.033002015
-0.042933248 0.12603797 -0.19784652 -0.18781488 0.11477078 -0.13281946 0.2767616 -0.017693397
0.113710344 -0.15187734 0.17043221 -0.26044512 0.05077745 0.07679765 -0.21929471 0.08001166
0.13726263 0.21330185 0.08446145 0.068000264 0.12514514 -0.18851812 -0.120215096 0.28169015
0.17839798 -0.23111203 0.04078737 -0.23801395 -0.004089072 0.09182083 0.2591343 -0.26859996
-0.13812786 0.18832667 -0.39032754 0.090760656 -0.19012272 0.08578704 -0.13262807 0.2747265
0.17699674 -0.21492507 -0.0034607947 -0.10971315 0.26959524 -0.11834873 -0.21058749 -0.116901346
0.108553305 0.029690852 -0.42752 -0.23121747 -0.02208848 0.07610913 -0.3919347 0.08868132

sequential_2/dense_7/MatMul i1 [32, 64] scale=0.010158554 zero_point=0
00000000: 0812 0c06 f904 13f7 13ee fe0a fbf9 fb0b
00000010: 04ef f2ec 0718 10f7 1212 12f8 06f2 00ef
00000020: eefe f514 180e fb02 090c eaf8 ea0e ea0f
00000030: f3fb 030e 16f9 0014 0eef 0b09 fd12 f805
00000040: 0eeb 0c10 0ce9 edfd 0802 0801 f508 1506
00000050: 0b0d f0fc e8ec 0d01 ec06 0a0f f20d 0205
00000060: ca0b 0deb f606 0e03 05eb e80d facb ef01
00000070: 0eef 0805 ff09 12f9 fff1 15f5 ea07 fd01
00000080: 17fb 03ff f914 19f8 fb13 0bf6 0d17 1302
00000090: f5fc 0ff0 2406 14f3 15ff 110e eb00 fe07
000000a0: 2519 12ef 1710 00f2 f0f2 1116 0835 08ef
000000b0: 1900 e5f1 fbf7 110a 08f2 fced efed 00fd
000000c0: efec fbf6 f508 f1ec f306 ecee fef7 f400
000000d0: ef0b f609 f803 ef06 f5f2 04ed f4f1 01fd
000000e0: e809 0d16 fe13 10ff e912 f20b f70e f9fa
000000f0: 0501 eff6 fe08 030f f503 0eec 15f1 18f1
0.08126843 0.18285397 0.121902645 0.060951322 -0.071109876 0.040634215 0.19301252 -0.09142698
0.19301252 -0.18285397 -0.020317107 0.10158554 -0.05079277 -0.071109876 -0.05079277 0.11174409
0.040634215 -0.17269541 -0.14221975 -0.20317107 0.071109876 0.24380529 0.16253686 -0.09142698
0.18285397 0.18285397 0.18285397 -0.08126843 0.060951322 -0.14221975 0.0 -0.17269541
-0.18285397 -0.020317107 -0.11174409 0.20317107 0.24380529 0.14221975 -0.05079277 0.020317107
0.09142698 0.121902645 -0.22348818 -0.08126843 -0.22348818 0.14221975 -0.22348818 0.1523783
-0.1320612 -0.05079277 0.030475661 0.14221975 0.22348818 -0.071109876 0.0 0.20317107
0.14221975 -0.17269541 0.11174409 0.09142698 -0.030475661 0.18285397 -0.08126843 0.05079277
0.14221975 -0.21332963 0.121902645 0.16253686 0.121902645 -0.23364674 -0.19301252 -0.030475661
0.08126843 0.020317107 0.08126843 0.010158554 -0.11174409 0.08126843 0.21332963 0.060951322
0.11174409 0.1320612 -0.16253686 -0.040634215 -0.24380529 -0.20317107 0.1320612 0.010158554
-0.20317107 0.060951322 0.10158554 0.1523783 -0.14221975 0.1320612 0.020317107 0.05079277
-0.54856193 0.11174409 0.1320612 -0.21332963 -0.10158554 0.060951322 0.14221975 0.030475661
0.05079277 -0.21332963 -0.24380529 0.1320612 -0.060951322 -0.53840333 -0.17269541 0.010158554
0.14221975 -0.17269541 0.08126843 0.05079277 -0.010158554 0.09142698 0.18285397 -0.071109876
-0.010158554 -0.1523783 0.21332963 -0.11174409 -0.22348818 0.071109876 -0.030475661 0.010158554
0.23364674 -0.05079277 0.030475661 -0.010158554 -0.071109876 0.20317107 0.25396383 -0.08126843
-0.05079277 0.19301252 0.11174409 -0.10158554 0.1320612 0.23364674 0.19301252 0.020317107
-0.11174409 -0.040634215 0.1523783 -0.16253686 0.36570793 0.060951322 0.20317107 -0.1320612
0.21332963 -0.010158554 0.17269541 0.14221975 -0.21332963 0.0 -0.020317107 0.071109876
0.37586647 0.25396383 0.18285397 -0.17269541 0.23364674 0.16253686 0.0 -0.14221975
-0.16253686 -0.14221975 0.17269541 0.22348818 0.08126843 0.53840333 0.08126843 -0.17269541
0.25396383 0.0 -0.27428097 -0.1523783 -0.05079277 -0.09142698 0.17269541 0.10158554
0.08126843 -0.14221975 -0.040634215 -0.19301252 -0.17269541 -0.19301252 0.0 -0.030475661
-0.17269541 -0.20317107 -0.05079277 -0.10158554 -0.11174409 0.08126843 -0.1523783 -0.20317107
-0.1320612 0.060951322 -0.20317107 -0.18285397 -0.020317107 -0.09142698 -0.121902645 0.0
-0.17269541 0.11174409 -0.10158554 0.09142698 -0.08126843 0.030475661 -0.17269541 0.060951322
-0.11174409 -0.14221975 0.040634215 -0.19301252 -0.121902645 -0.1523783 0.010158554 -0.030475661
-0.24380529 0.09142698 0.1320612 0.22348818 -0.020317107 0.19301252 0.16253686 -0.010158554
-0.23364674 0.18285397 -0.14221975 0.11174409 -0.09142698 0.14221975 -0.071109876 -0.060951322
0.05079277 0.010158554 -0.17269541 -0.10158554 -0.020317107 0.08126843 0.030475661 0.1523783
-0.11174409 0.030475661 0.14221975 -0.20317107 0.21332963 -0.1523783 0.24380529 -0.1523783
