models/CVD_Classification_Model.tflite (tflite, 5752 bytes, 5 tensors)

sequential/dense_2/MatMul f4 [1, 32]
00000000: 5ece 4bbe 73a2 b83e e8cf b83e 3767 f0bd
00000010: 0022 c1be 0602 c43e 8e14 c5bd bfb7 36be
00000020: bf8f 0b3e acb7 a73c 414b 5abe 00d5 63bd
00000030: e567 a9be 3928 90be aef4 b0be 47e8 1a3f
00000040: 22ca 3abe 38f7 c4bd 530b 3a3d 6fcb b6be
00000050: c350 ac3e 2238 313e 326a 333e c75a b1bd
00000060: a4a9 733e 37bf a33c d33e 783e 0214 3b3e
00000070: 99e4 c93e e94e 953e b7fe 2d3e d0b0 25be
-0.19902942 0.3606144 0.3609612 -0.11738437 -0.37721252 0.38282794 -0.09623061 -0.17843531
0.13629054 0.020473324 -0.2131777 -0.055623055 -0.33087078 -0.28155687 -0.34561676 0.6051068
-0.1824117 -0.09617466 0.045420956 -0.35702083 0.33655366 0.17306569 0.17520979 -0.086598925
0.23795182 0.01998864 0.24242716 0.18269351 0.3943222 0.29161766 0.16991697 -0.1618073

sequential/dense_1/BiasAdd/ReadVariableOp f4 [32]
00000000: 5ba5 b33d 129e 85bd 0000 0000 d713 24bd
00000010: 0239 aabc caba ae3c 620c 10bd 5f59 73be
00000020: 8c28 663c 69ca 21be 7054 813d 0000 0000
00000030: 951c 27bc 4745 66bc 9b60 343d c71f 8e3c
00000040: 1ca5 4b3d df5d 8e3c 1e11 e0bd 6758 8e3d
00000050: f0ad 54bc 5f9e 88bd 8214 99bd a2a2 bf3d
00000060: 627b 2dbc 97f4 a6bc 9d4e a4bd c454 eebd
00000070: 786a 8a3a 7596 cdbd cf25 9838 0000 0000
0.087717734 -0.0652429 0.0 -0.040057983 -0.020779137 0.021329302 -0.03516806 -0.23764561
0.014047753 -0.1579987 0.06314933 0.0 -0.010199686 -0.014054603 0.044037443 0.017349137
0.049718007 0.017378746 -0.10940765 0.06950455 -0.012980923 -0.06670832 -0.07474615 0.093571916
-0.010588499 -0.020380301 -0.08022807 -0.116372615 0.0010560295 -0.10038463 7.254967e-05 0.0

sequential/dense/BiasAdd/ReadVariableOp f4 [64]
00000000: 1f34 aebd 5641 66bc ac6b 89bd 2b40 10be
00000010: 0000 0000 0000 0000 c99c d4bc 11de 65bc
00000020: e597 acbc 0000 0000 bc0c 66bc ec03 a4bc
00000030: 817f e2bd f96e f0bd 73f0 f9bc a450 adbc
00000040: 5434 66bc b636 66bc b99f 15bd ac75 8fbd
00000050: aade 3abe 90bd a9bc d888 c6bd 059c 67bd
00000060: 5e27 40bc ae38 66bc 547b 2bbd 0000 0000
00000070: 0000 0000 a8ba 39be e449 0abd 8a72 cdbc
00000080: 0000 0000 0000 0000 16b0 24bc 3b2a 36bd
00000090: 5bdf 0fbe 0000 0000 a84a 14be 0000 0000
000000a0: 0000 0000 0000 0000 d931 09bd 34d2 b2bc
000000b0: 73ad 13be 2056 f3bd 8c01 50bc ced9 65bc
000000c0: 037c 59bc c505 bcbc 0000 0000 ff5f 65bc
000000d0: 0000 0000 aaf7 65bc c7dd 093c ef2e 66bc
000000e0: d766 f8bd 0000 0000 1730 1f3d 0000 0000
000000f0: 0000 0000 0000 0000 aad3 13bd 6d3e cebc
-0.08506035 -0.014053663 -0.0670999 -0.14086978 0.0 0.0 -0.025953667 -0.014029996
-0.021068523 0.0 -0.014041122 -0.020021401 -0.11059476 -0.11739916 -0.030510163 -0.021156617
-0.014050562 -0.01405113 -0.036529277 -0.07004866 -0.18249002 -0.020720273 -0.096940696 -0.056545276
-0.011728136 -0.014051599 -0.04186566 0.0 0.0 -0.1813761 -0.033761874 -0.02507903
0.0 0.0 -0.010051748 -0.044473868 -0.14050047 0.0 -0.14481604 0.0
0.0 0.0 -0.033494804 -0.021828748 -0.14421634 -0.118816614 -0.012695681 -0.014028979
-0.013274196 -0.02295197 0.0 -0.013999938 0.0 -0.0140360985 0.008414692 -0.014049276
-0.1212899 0.0 0.03886422 0.0 0.0 0.0 -0.03609053 -0.025176251

sequential/dense/MatMul f4 [64, 4]
00000000: 4971 acbe 073a 583e 1787 233e 7337 cb3c
00000010: c8c9 21be 191a 64bd 946e ea3c 9861 23bd
00000020: 14f3 363e ae83 55bd 9f5d 36be 9740 a0be
00000030: 994e afbb ba42 ca3c 5cc9 ca3c dba9 a2bd
00000040: 1c55 61be 70e3 10be 8817 06be 3488 16be
00000050: 8c1a b4bd 0f4d 25be 0051 61bb a8f8 1dbd
00000060: 8473 e13d 38b8 e4bd 2e28 8ebc 43bd 48be
00000070: b13d 87be 9169 ddbd cefa 583d 1285 eabc
00000080: da83 24bc 0022 51be b5a3 693e b125 a0bd
00000090: 204e 7cbd 1023 edbc 8ac1 e4bd 5ea3 30be
000000a0: 94c8 21be 6f29 65be 6ef4 3b3e 19a5 36be
000000b0: f0ee 55be cd4e 2fbe 8560 793e d1eb 673e
000000c0: 9bdd c33d 4e06 68be 0538 da3d a26f 9a3e
000000d0: 6ac1 b33c cb35 4ebd e241 db3d b2ac 2abd
000000e0: f167 593d dc50 a2bd 204f 6d3e 6f4a 94be
000000f0: 2ccb 3cbe 65dd 9abd e39d d83c ca0b 343e
00000100: 7155 8fbe 29be 77be 8091 2a3e e82e 91bd
00000110: 5b4f 083d 62d2 8bbe 1187 873e d165 72be
00000120: d87d 91bd fb55 7b3c da03 683e 1475 febd
00000130: 27fc da3d 2e59 cf3d 740e 493d 6c92 53be
00000140: 7830 edbc 9bc6 083d 5eaa 0bbe 6162 43bc
00000150: e4c1 94be 9707 843e 3283 2c3e 1e67 6dbe
00000160: 681d 8c3d ed67 a8bd 81d0 103e a233 5abd
00000170: 2032 f43d 9847 4cbe ed5d 443e 1e70 ca3d
00000180: 633a 4a3d 41db 2cbe e754 213d cce4 573e
00000190: f88e 9ebe 4ddc 94be 9ee3 5d3e f8c3 7c3e
000001a0: e1a1 51be 5251 563e abfd 92bc 42b7 14be
000001b0: 225a 91be eccf a73d a411 c1bd 5c85 fb3d
000001c0: 364c c2bd 4498 80be 32b5 6dbe da47 4b3e
000001d0: 2bed eebb 500f 1bbd 3ba8 593d 83f2 e43c
000001e0: 9b0c 1bbc 1012 d2bd bb99 3c3f b0ae 81bd
000001f0: f8a2 5b3d c74e 4abc c17d 7cbe 3afd b9bd
00000200: a603 fabd 1af1 dfbd 49af 55be 2c24 2c3e
00000210: 8a1f 0a3e 1d81 74be 7862 8ebe c84a 07bd
00000220: 0247 a9bd 56de 5b3d 7f8c af3c 5f44 bebd
00000230: f390 a9bd 5eb6 ba3d 883a f33e abe1 b4be
00000240: 2b7f 09bd ec29 29bc 057e bc3c 6f2d a53d
00000250: 1872 7abe ae09 6abe 2ee6 3bbe 95df 96be
00000260: 08cb 4d3e 5f96 55be 77b3 9f3d d47b 493e
00000270: 6efa 77be 0c64 8fbe 105e 0ebd 4e30 73be
00000280: b68b 66be 8c6d 64bd 4ef0 73be f06e 1c3e
00000290: 6ceb 9abd 80e0 993c d4be 4fbe cddf 29be
000002a0: 7664 dd3d 4c85 68be 5cfb 913e 164c 513e
000002b0: 7d36 453e dcb8 91be 2944 043d 9177 033d
000002c0: 80ef ca3c ca0a b83d 5960 babe dfbd 0dbe
000002d0: 12ab e0bc 0b92 c03d ded2 3cbe f468 4cbe
000002e0: 6255 6a3c 1a48 dbbd b5d4 9d3e 44c1 023d
000002f0: 7ae0 98be f345 abbd 80de 3d3e 5e53 1ab9
00000300: 37c0 28bc 19c5 00bd 74f0 e93e fe0d 9dbe
00000310: 49b7 5bbe b0f5 373d 7d0c 17bd 3065 0d3e
00000320: bc23 73be 95bb 72be 5071 b03c c6bd 803e
00000330: 1678 9abe afa8 61be b46a 693e ecfd ec3d
00000340: ea70 62be fc13 70be 40c2 a8bc 7401 653e
00000350: 1c2f 8dbe 48f9 783d 5171 dc3d 0640 02be
00000360: 0eee 903d deed 8abe 99b0 0e3e ab4d 653e
00000370: 7c40 e8bc da8a 98be 638a 8c3e fd80 c8bd
00000380: 1521 9cbc 14a9 083e 110f d0bc 5015 1fbe
00000390: 4aeb 20be 0083 febb ea9a b2bd 5035 ac3d
000003a0: f283 9e3d e5a8 7dbc f9fd 50bf dcba 673d
000003b0: 4a1c 44be 48fd 473d 33dc 73be 0cb6 ad3d
000003c0: c462 4ebe 0090 38bd cae7 f6bd a201 243e
000003d0: 823f 5ebe dbb2 89be b02d f4bc 00a1 e53b
000003e0: a357 793d c32f d3bc 32fd 62be 3dee 8bbd
000003f0: d25a b53d dbd0 eebc 2953 a0be 4017 0dbe
-0.3368018 0.21115886 0.15969501 0.024806714 -0.1579963 -0.05568895 0.02861718 -0.039887995
0.17866164 -0.052127533 -0.17809151 -0.31299278 -0.0053499457 0.02469002 0.024754219 -0.079425536
-0.22005123 -0.1414926 -0.13094914 -0.14700395 -0.08794126 -0.16142677 -0.0034380555 -0.038567215
0.11008361 -0.111679494 -0.017353144 -0.19603448 -0.26414254 -0.10811151 0.05297356 -0.028627906
-0.0100412015 -0.20423126 0.22816356 -0.07819689 -0.061597943 -0.028947383 -0.11169727 -0.1724982
-0.1579917 -0.22379087 0.18354961 -0.17836417 -0.20891929 -0.17119904 0.24353226 0.2264855
0.09563752 -0.22658655 0.10655216 0.30163294 0.021942813 -0.05034427 0.107059255 -0.0416686
0.053077642 -0.07925579 0.23174715 -0.28963038 -0.18436879 -0.07561759 0.026442474 0.17582622
-0.27994874 -0.24193634 0.16657066 -0.07089025 0.033278804 -0.27308947 0.26470235 -0.23671652
-0.07104081 0.015340324 0.22657719 -0.12424675 0.106926255 0.101244316 0.04908605 -0.20661324
-0.028953776 0.03339253 -0.13639209 -0.011925311 -0.29054177 0.2578704 0.16846922 -0.23183867
0.06841546 -0.08222947 0.14142038 -0.053271897 0.11923623 -0.19949186 0.19176455 0.09884666
0.04937209 -0.16880514 0.03938761 0.21083373 -0.30968451 -0.29074326 0.2166886 0.24684131
-0.20471908 0.20929459 -0.017943224 -0.14523032 -0.28389078 0.08193955 -0.09427193 0.12281296
-0.09487192 -0.2511617 -0.23213652 0.19851628 -0.007291456 -0.0378564 0.053138953 0.02794767
-0.009463455 -0.102573514 0.73672074 -0.06332147 0.053622216 -0.012347884 -0.24657346 -0.09081502
-0.12207727 -0.10934658 -0.20867647 0.16810673 0.13488594 -0.23877378 -0.278095 -0.0330303
-0.08265497 0.053678833 0.021429298 -0.092903845 -0.082796 0.09116815 0.47505593 -0.3532842
-0.033568542 -0.010324936 0.02300931 0.080653064 -0.24457586 -0.22855255 -0.18349525 -0.29467455
0.20096982 -0.20858143 0.07797902 0.19676143 -0.24216625 -0.28006017 -0.034757674 -0.23748896
-0.22514233 -0.055768535 -0.23822138 0.15276694 -0.075644344 0.018783808 -0.20287639 -0.1658928
0.10810177 -0.22707099 0.28512084 0.2043918 0.19259067 -0.2846135 0.032291565 0.03209645
0.024772406 0.08986433 -0.36401632 -0.13841961 -0.027425323 0.094028555 -0.18439814 -0.19961911
0.014302583 -0.10707112 0.30826345 0.031922594 -0.29858762 -0.08362951 0.18541908 -0.00014717641
-0.010299734 -0.031437967 0.45691264 -0.30674738 -0.21456636 0.04491204 -0.036877144 0.13808131
-0.237441 -0.2370437 0.021538407 0.25144786 -0.30169743 -0.22037004 0.2279461 0.11571869
-0.22113386 -0.23445123 -0.020600438 0.22363836 -0.27575004 0.060784608 0.10763801 -0.12719736
0.07076655 -0.27134603 0.13934554 0.22392909 -0.028351061 -0.29793435 0.2744933 -0.097902276
-0.019058743 0.13345748 -0.02539781 -0.15535474 -0.15714756 -0.0077670813 -0.08720954 0.08408606
0.0774001 -0.015482162 -0.8163753 0.056574687 -0.19151416 0.048825532 -0.23814468 0.08481988
-0.20154864 -0.045059204 -0.12055929 0.16016248 -0.21703914 -0.26894268 -0.029806942 0.007007718
0.060874593 -0.02577961 -0.22166899 -0.0683255 0.08855213 -0.029152324 -0.31313446 -0.137784

sequential/dense_1/MatMul i1 [32, 64] scale=0.020844014 zero_point=0
00000000: f809 0303 08f5 ffff 09f7 0302 fefd 0308
00000010: ff0a 05fb 0a04 fefc fcfd f9fd f7fc c1fc
00000020: 01fa 0301 fffb 040a 07f8 0505 ff05 0503
00000030: f3fe 0407 0204 ff07 100c e0fc 04f5 fb09
00000040: fbfb 0a06 f409 f605 fcfd f702 0b06 00f6
00000050: f70a 0b08 0806 f800 0afa fef5 0407 5ff5
00000060: 0502 0214 f8fc 0206 f600 f9f6 fa01 fd02
00000070: 0801 0106 05f8 01fe 0708 3801 01fd 000a
00000080: fc00 fc08 fb04 fcf4 fdfc f708 f70a 0c03
00000090: f6f8 fffa ff00 ff02 02f8 f7fb f50a f405
000000a0: 0a07 00f4 f400 f5fc f7fc f500 fdfa 04f5
000000b0: fbf4 0709 0b09 0907 f801 fdff 03f8 fc01
000000c0: 01fb 04f6 08ff fd05 06fc f60a fd01 f5f6
000000d0: 0103 fffa f707 0af5 0403 03fe 0b03 fbf8
000000e0: 0602 0701 f707 020a f9f8 f5fd f302 00ff
000000f0: 0206 fdfc fa03 fbfa 08fb 03fc f5f7 fffb
-0.16675211 0.18759613 0.062532045 0.062532045 0.16675211 -0.22928415 -0.020844014 -0.020844014
0.18759613 -0.18759613 0.062532045 0.04168803 -0.04168803 -0.062532045 0.062532045 0.16675211
-0.020844014 0.20844014 0.10422007 -0.10422007 0.20844014 0.08337606 -0.04168803 -0.08337606
-0.08337606 -0.062532045 -0.1459081 -0.062532045 -0.18759613 -0.08337606 -1.3131729 -0.08337606
0.020844014 -0.12506409 0.062532045 0.020844014 -0.020844014 -0.10422007 0.08337606 0.20844014
0.1459081 -0.16675211 0.10422007 0.10422007 -0.020844014 0.10422007 0.10422007 0.062532045
-0.2709722 -0.04168803 0.08337606 0.1459081 0.04168803 0.08337606 -0.020844014 0.1459081
0.33350423 0.25012818 -0.66700846 -0.08337606 0.08337606 -0.22928415 -0.10422007 0.18759613
-0.10422007 -0.10422007 0.20844014 0.12506409 -0.25012818 0.18759613 -0.20844014 0.10422007
-0.08337606 -0.062532045 -0.18759613 0.04168803 0.22928415 0.12506409 0.0 -0.20844014
-0.18759613 0.20844014 0.22928415 0.16675211 0.16675211 0.12506409 -0.16675211 0.0
0.20844014 -0.12506409 -0.04168803 -0.22928415 0.08337606 0.1459081 1.9801813 -0.22928415
0.10422007 0.04168803 0.04168803 0.41688028 -0.16675211 -0.08337606 0.04168803 0.12506409
-0.20844014 0.0 -0.1459081 -0.20844014 -0.12506409 0.020844014 -0.062532045 0.04168803
0.16675211 0.020844014 0.020844014 0.12506409 0.10422007 -0.16675211 0.020844014 -0.04168803
0.1459081 0.16675211 1.1672648 0.020844014 0.020844014 -0.062532045 0.0 0.20844014
-0.08337606 0.0 -0.08337606 0.16675211 -0.10422007 0.08337606 -0.08337606 -0.25012818
-0.062532045 -0.08337606 -0.18759613 0.16675211 -0.18759613 0.20844014 0.25012818 0.062532045
-0.20844014 -0.16675211 -0.020844014 -0.12506409 -0.020844014 0.0 -0.020844014 0.04168803
0.04168803 -0.16675211 -0.18759613 -0.10422007 -0.22928415 0.20844014 -0.25012818 0.10422007
0.20844014 0.1459081 0.0 -0.25012818 -0.25012818 0.0 -0.22928415 -0.08337606
-0.18759613 -0.08337606 -0.22928415 0.0 -0.062532045 -0.12506409 0.08337606 -0.22928415
-0.10422007 -0.25012818 0.1459081 0.18759613 0.22928415 0.18759613 0.18759613 0.1459081
-0.16675211 0.020844014 -0.062532045 -0.020844014 0.062532045 -0.16675211 -0.08337606 0.020844014
0.020844014 -0.10422007 0.08337606 -0.20844014 0.16675211 -0.020844014 -0.062532045 0.10422007
0.12506409 -0.08337606 -0.20844014 0.20844014 -0.062532045 0.020844014 -0.22928415 -0.20844014
0.020844014 0.062532045 -0.020844014 -0.12506409 -0.18759613 0.1459081 0.20844014 -0.22928415
0.08337606 0.062532045 0.062532045 -0.04168803 0.22928415 0.062532045 -0.10422007 -0.16675211
0.12506409 0.04168803 0.1459081 0.020844014 -0.18759613 0.1459081 0.04168803 0.20844014
-0.1459081 -0.16675211 -0.22928415 -0.062532045 -0.2709722 0.04168803 0.0 -0.020844014
0.04168803 0.12506409 -0.062532045 -0.08337606 -0.12506409 0.062532045 -0.10422007 -0.12506409
0.16675211 -0.10422007 0.062532045 -0.08337606 -0.22928415 -0.18759613 -0.020844014 -0.10422007
