Models/CVD_Classification_Model.tflite (tflite, 6088 bytes, 5 tensors)

arith.constant f4 [64, 4]
0	0x3da2f545	0.07956938
1	0xbba1ed67	-0.0049416306
2	0x3e0b9ca0	0.13633966
3	0xbebfb010	-0.37439013
4	0xbde030d5	-0.10946814
5	0xbe225aa9	-0.15854897
6	0x3eb6b9e0	0.35688686
7	0xbd68a848	-0.05680111
8	0xbbe3941a	-0.0069451453
9	0x3b626492	0.0034544808
10	0x3f17afc0	0.5925255
11	0x3e952d67	0.29136202
12	0x3e55e737	0.20888983
13	0x3d88a723	0.06672504
14	0x3f042bb3	0.5162918
15	0x3effcf0a	0.49962646
16	0x3e59af8d	0.21258374
17	0x3d8cb320	0.06870103
18	0x3e95b547	0.29239866
19	0x3f24e9f2	0.6441947
20	0xbe133dc6	-0.14379033
21	0xbe2da8c2	-0.16958907
22	0x3ed67f3b	0.41893944
23	0xbeff636f	-0.4988055
24	0xbe028331	-0.12745358
25	0xbe5212b1	-0.20514943
26	0xbd867967	-0.065661244
27	0xbe425c7c	-0.18980592
28	0xbb1d256e	-0.0023978609
29	0xbe430828	-0.1904608
30	0xbec98593	-0.39359722
31	0x3da39395	0.079871334
32	0x3c93609c	0.017990403
33	0xbaedcf53	-0.0018143452
34	0x3e3334dd	0.17500634
35	0x402613ec	2.594966
36	0x3d372aef	0.04471868
37	0x3d58d10f	0.05293375
38	0x3ebad923	0.36493787
39	0xbea59bc3	-0.323454
40	0xbd403aff	-0.046931263
41	0xbe3ee484	-0.1864186
42	0x3e15c8ed	0.14627428
43	0x3eb60a24	0.35554612
44	0xbdf6a616	-0.12043397
45	0x3da251ec	0.079257816
46	0x3efa58fe	0.4889602
47	0xbea15aba	-0.3151453
48	0x3e5bf0f1	0.2147863
49	0xbd1bbd2f	-0.038022216
50	0x3e0aec54	0.13566715
51	0x3d5cd77a	0.053916432
52	0x3c4e49f8	0.012590878
53	0x3e01351a	0.12617913
54	0x3ebdadf0	0.37046766
55	0x3f034b58	0.5128684
56	0x3d858c8b	0.06520947
57	0xbe606b32	-0.21915892
58	0x3e960e7c	0.29307926
59	0x3f034bd0	0.51287556
60	0xbd3bbd05	-0.04583456
61	0xbc42c169	-0.011886933
62	0x3eabb1f3	0.33534202
63	0xbf42aa15	-0.76040775
64	0xbd9e5a59	-0.07732076
65	0x3d94924a	0.07254465
66	0xbef6647f	-0.48123547
67	0x3e413571	0.18868043
68	0x3e60c80d	0.21951313
69	0xbd0c7678	-0.034292668
70	0x3e8c31b0	0.2738166
71	0x3ebb2754	0.36553442
72	0xbc145bf7	-0.009055129
73	0x3e116456	0.14198431
74	0x3ed06b89	0.40707043
75	0x3f30b62b	0.69027966
76	0x3ce91279	0.028451191
77	0xbcff0275	-0.031129101
78	0x3c2cb76d	0.010541779
79	0x3e16cfc4	0.14727694
80	0x3c11766b	0.008878331
81	0xba23ad82	-0.0006243811
82	0xbecf69df	-0.4051046
83	0x3d994522	0.07483889
84	0x3cdc2d91	0.026877197
85	0xbca8c594	-0.020602025
86	0x3f0ee25d	0.5581415
87	0xbec60b7c	-0.38680637
88	0x380e4534	3.391989e-05
89	0x3ca94de4	0.020667024
90	0x3e1a3ce0	0.15062284
91	0x3f23d7c5	0.64001113
92	0x3e2db915	0.16965134
93	0x3de8ff40	0.1137681
94	0xbf08ac42	-0.53387845
95	0x3da1235e	0.07868074
96	0xbd79c313	-0.060977053
97	0x3db5143a	0.088417485
98	0x3d49da8e	0.049280696
99	0x3c8331f2	0.016015027
100	0x3d63d9c0	0.055627584
101	0x3da70d10	0.08156788
102	0x3e664a27	0.22489224
103	0xbeb49a20	-0.35273838
104	0xbb385fab	-0.0028133194
105	0x3a916ac8	0.0011094445
106	0x3f315a4b	0.692784
107	0x3d3c5f34	0.04598923
108	0xbc448e65	-0.01199684
109	0x3ca259ec	0.019818269
110	0x3eb853f6	0.36001557
111	0xbebac5aa	-0.3647893
112	0xbc8ab273	-0.016930794
113	0xbe747083	-0.23871045
114	0x3dfcc490	0.12342179
115	0x3e68eb70	0.22746062
116	0xbddf175c	-0.10893127
117	0x3d71ef08	0.05906585
118	0x3daf7d0d	0.085687734
119	0x3e02d599	0.12776794
120	0xbe141605	-0.14461525
121	0xbd618786	-0.055060886
122	0xbeb4728c	-0.35243642
123	0xbe4920cc	-0.19641417
124	0xb7f26419	-2.889526e-05
125	0xb742d22c	-1.16122355e-05
126	0x3f2e5256	0.68094385
127	0x3cf36e1f	0.029715596
128	0x3e831485	0.25601593
129	0x3e3196e4	0.17342716
130	0x3e3a07fc	0.18167108
131	0x3dce8fd6	0.10086028
132	0xbcc575b2	-0.024103973
133	0x3c2bd6ed	0.010488254
134	0x3eadc710	0.33940935
135	0xbdd1ec89	-0.102501936
136	0x3dad2202	0.08453752
137	0x3de486e9	0.111585446
138	0x3eb3e8eb	0.3513864
139	0xbf2fc006	-0.6865238
140	0x3c44cf8f	0.012012376
141	0xbced3c52	-0.028959427
142	0xbf1b81e7	-0.6074509
143	0xbe4ec186	-0.20191011
144	0xbc3960e5	-0.011314605
145	0xbcbf3bd2	-0.023343954
146	0xbead2d7f	-0.33823773
147	0x3fbac830	1.4592342
148	0xbba333ac	-0.004980525
149	0xbceebe8c	-0.029143594
150	0xbeee8423	-0.46585187
151	0x3d7d7c8b	0.06188635
152	0xbe4d7d01	-0.20067216
153	0x3e1807d6	0.14846739
154	0xbe2bcbfb	-0.16777031
155	0xbe8195a3	-0.25309476
156	0x3cbe4619	0.023226785
157	0x3d120e5c	0.035658225
158	0x3ea04a3e	0.31306642
159	0xbf222d41	-0.633503
160	0x3c7c2abd	0.015391049
161	0xbc1cc103	-0.009567502
162	0x3edc3b2c	0.43013895
163	0xbf45a128	-0.7719903
164	0xbc4adc56	-0.012381634
165	0x3c8a754e	0.016901638
166	0xbee0430a	-0.43801147
167	0x3e8bf617	0.2733619
168	0x3debd3bc	0.115149945
169	0xbe89794c	-0.26850355
170	0x3ecd0e50	0.40049982
171	0x3eb814de	0.3595342
172	0xbe1a9633	-0.15096359
173	0xbcfd0f7e	-0.030891176
174	0xbdbf62c9	-0.09345014
175	0xbe6f1e95	-0.2335151
176	0xbc175942	-0.009237589
177	0xbd915795	-0.07096783
178	0xbf1186cf	-0.56846327
179	0x3e79ecfe	0.24406812
180	0xbd900937	-0.070330076
181	0x3e4a0b36	0.19730839
182	0x3dec3402	0.11533357
183	0x3abb71ba	0.0014300861
184	0x3e0bf882	0.13669017
185	0x3e868e40	0.26280403
186	0x3e84758f	0.2587094
187	0x3c108245	0.008820121
188	0x3c8f7f0a	0.017516632
189	0x3c619ffc	0.013771053
190	0x3e6f8483	0.23390393
191	0x3e461330	0.19343257
192	0x3cb64ac2	0.022252444
193	0xbaed0008	-0.0018081674
194	0x3efea42e	0.49734634
195	0xbd49fde5	-0.0493144
196	0x3d84c0d6	0.06482093
197	0xbe6cb7ed	-0.23117037
198	0x3eaef650	0.34172297
199	0x3e4fc0b0	0.20288348
200	0x3d8d2099	0.06890983
201	0x3d363b9b	0.044490438
202	0xbea17d2b	-0.31540808
203	0x3ebf2e1b	0.37339863
204	0x3e285388	0.16438115
205	0x3c887512	0.016657386
206	0x3dee4288	0.116337836
207	0xbf0a4a6b	-0.540198
208	0x3e2b0813	0.16702299
209	0xbd048a36	-0.03235837
210	0xbeb99271	-0.36244538
211	0x3e69a082	0.22815135
212	0x3caeb592	0.021326814
213	0x3e038089	0.12842001
214	0x3e037e14	0.12841064
215	0x3da30a33	0.0796093
216	0xbc44ce44	-0.012012068
217	0x3d767d26	0.060177945
218	0x3ea6e23b	0.32594475
219	0xbf53d628	-0.8274865
220	0x3d0a1fef	0.03372186
221	0x3d3ece98	0.046583742
222	0xbf3e5723	-0.7435171
223	0x3c211544	0.00983173
224	0xbb38ae79	-0.0028180166
225	0x3b9a85da	0.0047156634
226	0x3f3b7f0d	0.7324074
227	0x3d5d4455	0.054020245
228	0x3d0bbdc1	0.03411651
229	0xbd62c0af	-0.05535954
230	0x3e7b5eaa	0.2454783
231	0xbf11d48b	-0.5696494
232	0x3d9d1cba	0.07671495
233	0x3d4c0e99	0.04981861
234	0xbea5d338	-0.3238771
235	0x3ec955cd	0.39323273
236	0x3e97994b	0.2960914
237	0x3d3af5c1	0.045644525
238	0x3e794b9c	0.24345249
239	0xbeadae6c	-0.33922136
240	0x3e4cf097	0.20013653
241	0x3e3ffde0	0.1874919
242	0xbf20e848	-0.62854433
243	0x3c73f7cf	0.014890625
244	0x3d94c42d	0.0726398
245	0xbe14405c	-0.14477676
246	0xbd2584cc	-0.040409848
247	0xbe8c122a	-0.27357608
248	0x3e5c2783	0.21499448
249	0xbd85ffb7	-0.06542914
250	0x3f1400e8	0.5781388
251	0x3c966e25	0.018363068
252	0x3b9b1dd4	0.0047337804
253	0xbd4d662e	-0.050146274
254	0x3e04b940	0.12961292
255	0xbe674103	-0.22583394

arith.constant1 f4 [64]
0	0x3d33e46d	0.043919016
1	0x3dfbaea1	0.12289167
2	0x3ef7df20	0.48412418
3	0x3e31dad4	0.17368633
4	0x3df31412	0.118690625
5	0xbad87923	-0.0016515594
6	0xbcb8fb0a	-0.022580642
7	0xbe21d4d9	-0.15803851
8	0x3e9d20f7	0.30689213
9	0x3f18f32e	0.5974606
10	0xbd6a8bb3	-0.057262134
11	0x3e284961	0.16434242
12	0x3d0a022e	0.033693485
13	0x3e0feeaf	0.14055894
14	0x3dee4512	0.11634268
15	0x3e2462fd	0.16053386
16	0xbe19bd73	-0.15013675
17	0x3d07302b	0.03300492
18	0x3dde95b5	0.10868398
19	0xbd8deace	-0.06929551
20	0xbed443c9	-0.41457966
21	0x3e2e353b	0.17012493
22	0x3e38cad2	0.1804612
23	0xbda79e2d	-0.081844665
24	0xbe0ad8c7	-0.13559256
25	0x3ebe3166	0.37147063
26	0x3ed6f7df	0.41985986
27	0x3f05eda9	0.52315766
28	0x3e95cc9b	0.29257664
29	0x3e4843f5	0.19557174
30	0xbe182dfd	-0.14861293
31	0x3ed40e12	0.41416985
32	0x3d7dcc6e	0.061962537
33	0x3d47a892	0.048744746
34	0x3e890cf3	0.26767692
35	0xbcb5165a	-0.022105385
36	0xbe6e1a3d	-0.23252197
37	0xbe7dae9d	-0.24773641
38	0xbda5c1f5	-0.08093635
39	0x3ef5c7d8	0.4800403
40	0x3d93a506	0.0720921
41	0xbea45757	-0.32097885
42	0x3dabe748	0.08393723
43	0xbe81df00	-0.25365448
44	0xbe6c4d33	-0.23076324
45	0x3cc08e0f	0.023505239
46	0x3d44bed6	0.048033558
47	0x3eb7c628	0.3589337
48	0x3eb412cc	0.3517059
49	0x3db5674b	0.08857592
50	0xbea4a2fa	-0.3215559
51	0xbe5fedae	-0.21868011
52	0xbe3b8fe1	-0.18316604
53	0x3e3c4769	0.18386616
54	0x3dc0d880	0.09416294
55	0xbe3f5900	-0.18686295
56	0x3ee4626a	0.44606334
57	0x3c87dc69	0.016584592
58	0xbe18892b	-0.14896075
59	0x3e20264a	0.15639606
60	0xbe42c3c9	-0.19019999
61	0x3d36edf4	0.044660524
62	0x3e6eed61	0.2333274
63	0x3e5360c8	0.20642388

arith.constant2 f4 [32]
0	0x3d556237	0.052095618
1	0x3d77d666	0.0605072
2	0x3d30ca31	0.043161575
3	0x3d0f93e7	0.03505316
4	0x3e078901	0.13235857
5	0x3e745b2f	0.23862909
6	0x3e70499c	0.2346558
7	0x3c2587c3	0.010103169
8	0x3e6e7510	0.23286843
9	0xbc18ced8	-0.009326659
10	0xbd0c5ccd	-0.03426819
11	0x3e450fcf	0.19244312
12	0xbdbb4e72	-0.09145822
13	0xbcfe48cd	-0.031040573
14	0xbbd00e78	-0.006349381
15	0xbcddeff2	-0.027091954
16	0xbcdbda86	-0.026837599
17	0xbcb527bc	-0.022113673
18	0xbd5e66dd	-0.054297317
19	0xbd8c86c1	-0.0686164
20	0xbcf78ec6	-0.030219447
21	0x3d0c46c7	0.034247186
22	0x3e287b3d	0.16453262
23	0x3e3ff928	0.1874739
24	0x3d1d8cc3	0.03846432
25	0x3e068d17	0.13139759
26	0x3b6a5cfd	0.0035760992
27	0x3e50584d	0.20346184
28	0x3e499733	0.19686584
29	0xbd92e891	-0.07173265
30	0xbc3a58ab	-0.011373679
31	0x3c8b6693	0.017016685

arith.constant4 f4 [1, 32]
0	0x3f8dcf56	1.1078899
1	0x3ff5a42e	1.9190729
2	0x3fb845bf	1.4396285
3	0x3fd9e7f0	1.7023907
4	0xbee1ae06	-0.44078082
5	0xbf4bd11f	-0.7961597
6	0xbe81a7a6	-0.25323218
7	0x3fddbf33	1.7323974
8	0xbf1f09ab	-0.6212413
9	0x3fb64359	1.4239303
10	0x3fba70ef	1.4565715
11	0xbe9cd117	-0.30628273
12	0x3fb5e89e	1.4211614
13	0x3f974687	1.1818398
14	0x3fa28cce	1.269922
15	0xbe0cd6ea	-0.13753858
16	0x3f8c1be3	1.094601
17	0xbe8ebd54	-0.2787882
18	0x3f3111a6	0.69167554
19	0x3f1ed7ef	0.6204824
20	0x3fa28d5f	1.2699393
21	0xbec362fc	-0.38161457
22	0xbec30248	-0.38087678
23	0x3f835091	1.0258962
24	0x3ff305b3	1.8986114
25	0xbd70d804	-0.05879976
26	0xbddf8c0a	-0.10915382
27	0xbe8c4de8	-0.27403188
28	0x3f7eaec8	0.99485445
29	0x407fef63	3.998986
30	0x401194f9	2.2747176
31	0xbf009ba7	-0.50237507

tfl.pseudo_qconst i1 [32, 64]
0	0xfe	-2
1	0x02	2
2	0x24	36
3	0x0e	14
4	0x04	4
5	0x01	1
6	0xf5	-11
7	0xeb	-21
8	0xf7	-9
9	0xf9	-7
10	0x09	9
11	0x0d	13
12	0xfd	-3
13	0x07	7
14	0x0b	11
15	0x13	19
16	0xf6	-10
17	0x0b	11
18	0x0e	14
19	0xf8	-8
20	0x07	7
21	0x0a	10
22	0xf7	-9
23	0xea	-22
24	0x06	6
25	0x06	6
26	0x58	88
27	0x0a	10
28	0x0c	12
29	0x04	4
30	0x07	7
31	0x7f	127
32	0x0d	13
33	0x09	9
34	0x1a	26
35	0xe2	-30
36	0xf1	-15
37	0xde	-34
38	0xfb	-5
39	0xfe	-2
40	0x08	8
41	0xec	-20
42	0xfd	-3
43	0xf4	-12
44	0xf5	-11
45	0xf3	-13
46	0xfe	-2
47	0x08	8
48	0x1d	29
49	0xf0	-16
50	0x04	4
51	0x0c	12
52	0xff	-1
53	0x07	7
54	0x05	5
55	0xe3	-29
56	0x75	117
57	0xfa	-6
58	0xf3	-13
59	0x04	4
60	0xff	-1
61	0x06	6
62	0x18	24
63	0x0d	13
64	0x0a	10
65	0x03	3
66	0x13	19
67	0x18	24
68	0x08	8
69	0x03	3
70	0x00	0
71	0xf9	-7
72	0x24	36
73	0x0d	13
74	0xf0	-16
75	0x03	3
76	0x0a	10
77	0x0a	10
78	0x04	4
79	0x08	8
80	0xf3	-13
81	0x0a	10
82	0x0d	13
83	0xfc	-4
84	0x08	8
85	0x22	34
86	0x05	5
87	0xed	-19
88	0x00	0
89	0x07	7
90	0x6a	106
91	0x02	2
92	0x08	8
93	0x05	5
94	0xfc	-4
95	0x7f	127
96	0x0d	13
97	0xf8	-8
98	0x16	22
99	0xed	-19
100	0xfd	-3
101	0xf0	-16
102	0xf7	-9
103	0xff	-1
104	0x16	22
105	0xf6	-10
106	0xfc	-4
107	0xf9	-7
108	0xeb	-21
109	0xfb	-5
110	0x0e	14
111	0xfe	-2
112	0x17	23
113	0x05	5
114	0xfb	-5
115	0x0e	14
116	0xf5	-11
117	0xfb	-5
118	0x16	22
119	0xe4	-28
120	0x6f	111
121	0x00	0
122	0xfe	-2
123	0xf8	-8
124	0xee	-18
125	0xfd	-3
126	0x17	23
127	0x05	5
128	0xf8	-8
129	0x05	5
130	0x23	35
131	0x13	19
132	0x05	5
133	0xf8	-8
134	0x00	0
135	0xef	-17
136	0x19	25
137	0x02	2
138	0xf5	-11
139	0x02	2
140	0x09	9
141	0x0d	13
142	0x01	1
143	0x17	23
144	0x01	1
145	0xff	-1
146	0x06	6
147	0x00	0
148	0xfa	-6
149	0x11	17
150	0x03	3
151	0xe9	-23
152	0xf2	-14
153	0x0a	10
154	0x66	102
155	0x03	3
156	0x0d	13
157	0xfb	-5
158	0xf0	-16
159	0x7f	127
160	0x04	4
161	0x0c	12
162	0x07	7
163	0xf7	-9
164	0x08	8
165	0xdd	-35
166	0xfd	-3
167	0x06	6
168	0x0e	14
169	0x05	5
170	0x09	9
171	0x07	7
172	0xf4	-12
173	0xfa	-6
174	0x04	4
175	0x0d	13
176	0x0f	15
177	0xfa	-6
178	0xf5	-11
179	0xf4	-12
180	0xeb	-21
181	0x08	8
182	0x04	4
183	0xe0	-32
184	0x7b	123
185	0x05	5
186	0x02	2
187	0xf7	-9
188	0xfa	-6
189	0x00	0
190	0x12	18
191	0xff	-1
192	0xfe	-2
193	0x03	3
194	0x21	33
195	0x13	19
196	0x01	1
197	0x11	17
198	0xfc	-4
199	0xef	-17
200	0x17	23
201	0x0d	13
202	0xf8	-8
203	0x0c	12
204	0xf8	-8
205	0x15	21
206	0x00	0
207	0x13	19
208	0xf8	-8
209	0x10	16
210	0x09	9
211	0xff	-1
212	0x08	8
213	0x22	34
214	0xfc	-4
215	0xfa	-6
216	0xf2	-14
217	0x02	2
218	0x6d	109
219	0xfa	-6
220	0x0b	11
221	0xf3	-13
222	0xf9	-7
223	0x73	115
224	0xf9	-7
225	0x01	1
226	0x12	18
227	0xeb	-21
228	0xff	-1
229	0xe3	-29
230	0xfc	-4
231	0x04	4
232	0x13	19
233	0xfc	-4
234	0x0a	10
235	0x07	7
236	0xe8	-24
237	0xfb	-5
238	0x0a	10
239	0x14	20
240	0x19	25
241	0x0c	12
242	0xf0	-16
243	0xf3	-13
244	0xfd	-3
245	0x03	3
246	0x00	0
247	0xe9	-23
248	0x7f	127
249	0x03	3
250	0xf3	-13
251	0xf7	-9
252	0xec	-20
253	0xf5	-11
254	0x0b	11
255	0x02	2
